checkpoint_actor1.pth (torch_old, 28437 bytes, 4 tensors)

fc1.weight f4 [256, 24]
-0.07735991 -0.10754873 0.016558005 0.029147701 -0.18373856 0.13433304 0.049709246 0.011664092
0.010258318 -0.18065085 0.12053625 0.13227135 -0.09098853 0.028446482 0.0050776484 0.08019073
-0.08930943 -0.18552406 0.019762136 0.07352603 -0.074951075 0.0044740182 -0.0306842 0.057653237
-0.09904224 0.1785301 0.005952769 0.19626573 -0.04760081 -0.2576724 -0.020068262 0.15778157
-0.13600604 0.19696963 -0.012420246 0.051128246 -0.0044811633 -0.35090783 -0.01940296 0.08242389
-0.12493209 0.20117058 0.0039637373 -0.0664386 0.011719595 -0.45505127 -0.013842995 -0.029759336
0.007243078 -0.04966755 -0.029522274 0.011612621 0.1914653 0.04058137 0.03472339 -0.05505677
0.038317624 -0.09507832 0.01919654 0.07253262 0.026830953 0.23542559 -0.05406509 0.014605955
-0.11049257 -0.10043252 0.024687923 0.10697843 -0.14718053 0.32077765 0.0050262287 0.104591504
-0.14957581 0.03376091 -0.014664171 0.11549076 -0.20990722 0.016958622 -0.014367253 0.030119013
-0.032904617 0.14653732 -0.042461652 0.1235107 -0.058335483 -0.1450499 0.031469103 0.12818651
-0.04078317 0.12954935 -0.033761755 0.022709249 0.05752568 -0.32098454 -0.02894428 0.040798806
0.0044619213 0.015024452 0.008028157 -0.014475475 0.26748887 0.17711921 -0.023721 -0.0076305433
-0.038486738 0.02841615 -0.015506626 0.11685915 0.13991174 0.24765368 -0.0005931295 0.02614167
-0.14313637 0.07176223 0.035174243 0.053108115 0.10646986 0.33916074 -0.045456648 0.03215902
-0.036657102 0.3080276 -0.013391191 0.054559708 0.15742916 0.25957072 0.074864924 0.03824435
0.013759859 0.3615063 0.0031750554 0.04065558 0.22479834 0.16158108 -0.031011932 0.06724929
0.057324365 0.36663085 -0.030247202 0.07713665 0.17470776 0.11367077 0.07486729 -0.009598961
-0.111498445 0.029538682 0.050425608 0.027688073 0.25622597 -0.10100924 -0.041366626 0.06468064
-0.08320772 -0.099671535 -0.02319149 -0.017091285 0.14935073 -0.044601735 0.04442205 0.03459186
-0.041409187 -0.06617932 0.066258505 0.006973687 0.08258126 0.14630279 0.015883187 -0.07401045
-0.20453632 0.032308493 0.059821174 0.0002884109 0.7830864 0.0006094234 0.008967202 -0.054292373
-0.090873405 -0.013640774 0.012674743 -0.0060124085 0.74812496 -0.07883396 0.055410407 -0.0024708959
0.058730528 0.23396511 0.009369244 0.12459088 0.35955927 -0.3000136 0.07092556 0.1040716
-0.028761467 0.22853409 -0.005713547 -0.0024088107 -0.0066441884 -0.1765907 -0.018074388 -0.020419016
-0.0649281 0.17175867 -0.06252409 -0.17895193 0.010246799 -0.18609877 -0.12130785 -0.19203623
-0.103361 0.19128153 0.026531199 -0.28813756 0.1157338 -0.16364758 0.020165542 -0.29634833
0.062195543 -0.16314754 -0.03334523 -0.05478567 -0.012134589 0.025548138 0.012866635 -0.050730128
0.0771807 -0.107887775 -0.033341803 -0.01028552 -0.09666443 0.05419642 0.026372025 -0.046239674
-0.052535553 -0.2406625 -0.026096342 0.042747453 -0.22118168 0.22239982 0.016016454 0.027532069
-0.122300565 -0.102082424 -0.017844317 -0.07441751 -0.106132194 -0.08971184 0.06162837 -0.047338985
-0.07987607 -0.043487426 0.014751068 -0.078453265 0.07959291 -0.1633113 0.011918433 0.012878727
00000000: df6e 9ebd 8242 dcbd a7a4 873c 29c7 ee3c
00000010: f625 3cbe 9a8e 093e ec9b 4b3d bf1a 3f3c
00000020: 8112 283c 89fc 38be b6db f63d 2472 073e
00000030: 3258 babd 9908 e93c 6762 a63b 0a3b a43d
00000040: dde7 b6bd 05fa 3dbe 34e4 a13c d194 963d
00000050: f37f 99bd c99a 923b 6e5d fbbc cd25 6c3d
00000060: a8d6 cabd 98d0 363e 720f c33b e2f9 483e
00000070: 11f9 42bd a3ed 83be 3266 a4bc 7e91 213e
00000080: 2b45 0bbe 68b2 493e 4a7e 4bbc da6b 513d
00000090: b9d6 92bb 31aa b3be f5f2 9ebc dbcd a83d
000000a0: 65dc ffbd a9ff 4d3e 3de2 813b f610 88bd
000000b0: 8b03 403c 7bfc e8be bbcd 62bc dac9 f3bc
000000c0: 5857 ed3b 3370 4bbd b2d8 f1bc dd42 3e3c
000000d0: 7b0f 443e a738 263d 1d3a 0e3d 3583 61bd
000000e0: f1f2 1c3d 6cb8 c2bd 1042 9d3c fb8b 943d
000000f0: 96cc db3c 6813 713e 5b73 5dbd d14d 6f3c
00000100: ee49 e2bd 91af cdbd 543e ca3c 8217 db3d
00000110: 7eb6 16be f83c a43e 10b3 a43b 1234 d63d
00000120: 672a 19be e148 0a3d fe41 70bc 6b86 ec3d
00000130: ebf1 56be cfec 8a3c a064 6bbc 26bc f63c
00000140: fec6 06bd e10d 163e 45ec 2dbd 2ef3 fc3d
00000150: 30f1 6ebd f687 14be bfe5 003d 5343 033e
00000160: 410c 27bd 96a8 043e c449 0abd bf08 ba3c
00000170: 0ca0 6b3d 1658 a4be 8e1c edbc a61c 273d
00000180: 4f35 923b 1e29 763c 8888 033c 8b2a 6dbc
00000190: 4df4 883e bd5e 353e 8b52 c2bc a309 fabb
000001a0: 45a4 1dbd fcc8 e83c 810f 7ebc da53 ef3d
000001b0: 0645 0f3e ed98 7d3e 3f7c 1bba 0e27 d63c
000001c0: 5792 12be 13f8 923d de12 103d e587 593d
000001d0: df0c da3d 7aa6 ad3e c030 3abd 2db9 033d
000001e0: c225 16bd cbb5 9d3e ba66 5bbc 007a 5f3d
000001f0: 1c35 213e 74e6 843e c852 993d 1ca6 1c3d
00000200: 0871 613c 5b17 b93e 9714 503b 7786 263d
00000210: 8931 663e 8375 253e bc0c febc ffb9 893d
00000220: f4cc 6a3d 0ab7 bb3e fbc8 f7bc d2f9 9d3d
00000230: 97e6 323e 38cc e83d 0654 993d f644 1dbc
00000240: 4c59 e4bd 1bfb f13c 158b 4e3d 19d2 e23c
00000250: 0d30 833e efdd cebd 0d70 29bd 4977 843d
00000260: cf68 aabd 9720 ccbd 14fc bdbc 0603 8cbc
00000270: 66ef 183e 4fb0 36bd e5f3 353d 32b0 0d3d
00000280: ae9c 29bd 0689 87bd 8ab2 873d 8783 e43b
00000290: 5d20 a93d 66d0 153e 751d 823c ca92 97bd
000002a0: f871 51be e955 043d 0c07 753d db35 9739
000002b0: 5a78 483f b6c1 1f3a 2ceb 123c ae61 5ebd
000002c0: d61b babd 8e7d 5fbc baa9 4f3c bd03 c5bb
000002d0: 1e85 3f3f b373 a1bd 06f6 623d c1ee 21bb
000002e0: 6c8f 703d 8d94 6f3e 7581 193c 8129 ff3d
000002f0: 2718 b83e 629b 99be 6c41 913d 7e23 d53d
00000300: 2b9d ebbc d704 6a3e b538 bbbb 23dd 1dbb
00000310: 7eb7 d9bb 31d4 34be bd10 94bc c845 a7bc
00000320: 06f9 84bd 81e1 2f3e a10c 80bd 2d3f 37be
00000330: 31e2 273c ad90 3ebe 4070 f8bd 25a5 44be
00000340: efae d3bd 4edf 433e f557 d93c c486 93be
00000350: d805 ed3d 3b93 27be 3532 a53c f8ba 97be
00000360: c1c0 7e3d 2610 27be 0295 08bd f066 60bd
00000370: 28d0 46bc 544a d13c 94ce 523c 65ca 4fbd
00000380: ea10 9e3d 44f4 dcbd 6a91 08bd 9984 28bc
00000390: 00f8 c5bd 11fd 5d3d 250a d83c d065 3dbd
000003a0: 852f 57bd 3b70 76be ffc7 d5bc f417 2f3d
000003b0: 737d 62be c7bc 633e f034 833c ef8a e13c
000003c0: b878 fabd 9710 d1bd 3f2e 92bc 3568 98bd
000003d0: d65b d9bd d7ba b7bd 086e 7c3d 86e6 41bd
000003e0: 1196 a3bd df1f 32bd 77ae 713c 1bac a0bd
000003f0: 9c01 a33d 143b 27be 8845 433c 4c01 533c

fc1.bias f4 [256]
0.1725718 -0.07504085 0.19376476 -0.112708665 0.2634206 0.08982847 0.13048461 -0.20198722
-0.060515903 0.11970598 -0.17022735 0.05488768 -0.10846448 -0.05682754 0.07795774 0.07965317
0.18980528 0.09416394 -0.074525505 0.010235123 -0.08934351 -0.011752109 -0.009585943 0.015507735
0.0038506892 0.0665598 0.17358682 0.16182958 -0.10608046 0.03625488 -0.21248774 -0.13471377
-0.011252386 0.21693863 0.06410437 -0.060107954 -0.08772666 0.25263795 0.12910624 -0.08647302
0.15991192 -0.028064623 -0.122409485 0.15150988 -0.03589216 0.002408281 -0.12615083 0.15275809
0.13607542 -0.067235634 0.0021640642 0.1780102 0.04622222 -0.028774828 0.17095752 0.049636036
0.028104024 -0.23838256 -0.042748116 0.017207723 -0.12607682 0.09863095 -0.20847048 -0.057348706
0.13311008 -0.1396631 -0.11715707 0.19013555 -0.047392808 -0.04716619 -0.020204829 -0.112912565
-0.037305802 -0.113703445 -0.07552841 0.0454237 0.11653251 -0.15547888 -0.15915583 0.07820818
-0.038810443 -0.00067041407 0.03243842 0.042402744 0.06703491 -0.053495474 -0.14380568 0.09958513
0.04621517 0.036491908 0.22717588 0.22167823 -0.14953656 0.104243055 0.21662886 -0.019844452
-0.107214674 -0.10831521 0.040141065 -0.059776325 0.13956529 0.08814505 -0.12160878 0.07680072
0.097800195 0.26911673 -0.0037193338 0.17468536 0.06813017 -0.107131824 -0.118022904 0.0121122245
0.0698369 -0.06814971 -0.24700086 0.2619959 0.12645221 0.117991224 -0.18466413 0.047657944
-0.031594638 0.19703613 -0.09261017 0.210418 0.018555844 0.023750287 0.073092334 -0.0039365753
0.055089884 0.03133389 0.18093778 -0.104599774 0.21376507 -0.1785048 0.18970704 -0.039856464
-0.022018962 -0.2066098 -0.017510759 0.14179571 -0.20273703 0.13003421 -0.04683888 0.18565728
0.043551564 -0.25120056 0.050708797 -0.04708055 0.09641189 -0.17824262 0.18957317 -0.10956129
0.18090886 -0.1603223 0.13430083 -0.055553544 0.09826691 -0.018905252 -0.16871625 0.17421801
0.04501568 0.13331859 -0.048599042 -0.054407693 -0.04139851 -0.15359601 0.12306291 0.08910589
-0.03167084 -0.05916558 0.013153415 0.13791569 0.16966172 -0.19035873 0.1079724 0.2489088
-0.031778637 0.048778396 0.050483134 0.026472034 0.20115164 0.20648216 0.12849547 -0.115900695
0.04902827 0.089273065 0.19523259 0.0021742156 0.102517955 0.19053917 0.13471074 -0.010300419
-0.03300883 0.010252045 0.16346718 -0.07188613 -0.13097225 0.012790448 -0.1806229 -0.11104075
0.24783176 -0.05523552 0.15472984 -0.09677692 -0.16309941 -0.071522556 0.079917096 0.112840675
0.11627665 0.018838359 -0.0678028 0.13195959 0.029225176 -0.047266103 0.0985535 0.014401984
0.052078184 -0.008626169 0.06456094 0.037693776 0.09992372 -0.013988516 0.05169883 0.059236277
-0.0811638 0.061178565 0.084988266 -0.13826331 -0.13680251 0.19006209 -0.0938321 0.1559403
0.05212226 0.16995493 0.008039939 0.020948207 -0.13800836 -0.23138851 -0.003967166 0.14373879
0.059768323 0.012902242 -0.0964932 0.021103486 0.041789405 0.051536288 0.0887851 0.10098938
0.03134579 0.11177358 -0.011909389 -0.0680052 0.15893394 -0.023266822 0.021342738 0.053068962
00000000: a9b6 303e 04af 99bd 456a 463e cdd3 e6bd
00000010: 11df 863e fdf7 b73d c29d 053e bdd5 4ebe
00000020: 86df 77bd 6928 f53d 1450 2ebe e7d1 603d
00000030: a022 debd ffc3 68bd 4fa8 9f3d 3421 a33d
00000040: 515c 423e 06d9 c03d d4a0 98bd 38b1 273c
00000050: bbf9 b6bd eb8b 40bc 5c0e 1dbc 2814 7e3c
00000060: d85b 7c3b 8150 883d bec0 313e a7b6 253e
00000070: b640 d9bd ff7f 143d 6396 59be 68f2 09be
00000080: ed5b 38bc 2925 5e3e 2749 833d c233 76bd
00000090: 09aa b3bd c359 813e 6d34 043e c418 b1bd
000000a0: f3bf 233e c8e7 e5bc d3b1 fabd 6825 1b3e
000000b0: a803 13bd 40d4 1d3b af2d 01be 9e6c 1c3e
000000c0: 5b57 0b3e d6b2 89bd f9d2 0d3b 4e48 363e
000000d0: 8353 3d3d 30b9 ebbc 7d0f 2f3e 284f 4b3d
000000e0: 693a e63c 8f1a 74be a618 2fbd 36f7 8c3c
000000f0: 481a 01be 06ff c93d 4979 55be 7ae6 6abd
00000100: 024e 083e d803 0fbe 0cf0 efbd e5b2 423e
00000110: f61e 42bd 5631 41bd 9984 a5bc b43e e7bd
00000120: f8cd 18bd 5add e8bd a4ae 9abd 340e 3a3d
00000130: 99a8 ee3d db35 1fbe bff9 22be 9c2b a03d
00000140: b3f7 1ebd babe 2fba 26de 043d 80ae 2d3d
00000150: 9949 893d 121e 5bbd cc41 13be 4af3 cb3d
00000160: 1e4c 3d3d 8a78 153d cba0 683e 9eff 623e
00000170: 1d20 19be 627d d53d f5d3 5d3e d590 a2bc
00000180: 5e93 dbbd 5dd4 ddbd f56a 243d 05d8 74bd
00000190: 34ea 0e3e 6485 b43d 060e f9bd b249 9d3d
000001a0: 784b c83d abc9 893e 11c0 73bb b8e0 323e
000001b0: d587 8b3d ee67 dbbd feb5 f1bd 5a72 463c
000001c0: a606 8f3d 1392 8bbd cbed 7cbe 5424 863e
000001d0: b07c 013e 62a5 f13d 9818 3dbe fa34 433d
000001e0: 6169 01bd d7c3 493e 67aa bdbd d177 573e
000001f0: 6d02 983c f68f c23c 6fb1 953d 63fe 80bb
00000200: eea5 613d f757 003d c147 393e 6838 d6bd
00000210: 3be5 5a3e f6c9 36be 9042 423e 8840 23bd
00000220: 1c61 b4bc 8591 53be b972 8fbc e532 113e
00000230: 4c9a 4fbe b027 053e 20da 3fbd f11c 3e3e
00000240: 2063 323d 5c9d 80be 07b4 4f3d 89d7 40bd
00000250: 9973 c53d 3c85 36be 781f 423e ab61 e0bd
00000260: 2c40 393e 872b 24be 2886 093e 1d8c 63bd
00000270: 2940 c93d 30df 9abc f4c3 2cbe 3566 323e
00000280: 5d62 383d ab84 083e ca0f 47bd 9ada 5ebd
00000290: 7c91 29bd 4648 1dbe 6808 fc3d 267d b63d
000002a0: 48b9 01bd 9b57 72bd 6c81 573c c539 0d3e
000002b0: cdbb 2d3e 66ed 42be a220 dd3d f3e1 7e3e
000002c0: 512a 02bd dbcb 473d 67c7 4e3d e1db d83c
000002d0: b2fa 4d3e 0f70 533e 5194 033e 585d edbd
000002e0: ded1 483d ccd4 b63d 0deb 473e 497d 0e3b
000002f0: eff4 d13d b31c 433e 9df1 093e 17c3 28bc
00000300: 4434 07bd 31f8 273c f163 273e 0939 93bd
00000310: 971d 06be 078f 513c 36f5 38be 5569 e3bd
00000320: 9cc7 7d3e a43e 62bd 8071 1e3e fa32 c6bd
00000330: 8803 27be 6b7a 92bd 93ab a33d 0319 e73d
00000340: 7422 ee3d e752 9a3c 32dc 8abd 6a20 073e
00000350: a369 ef3c 1a9a 41bd 6bd6 c93d 4df6 6b3c
00000360: ef4f 553d c654 0dbc 8738 843d ca64 1a3d
00000370: cfa4 cc3d 1730 65bc 27c2 533d bda1 723d
00000380: 3539 a6bd 6096 7a3d 540e ae3d e694 0dbe
00000390: f515 0cbe a39f 423e 0b2b c0bd d0ae 1f3e
000003a0: 277e 553d aa08 2e3e f3b9 033c 939b ab3c
000003b0: 1052 0dbe 1cf1 6cbe 00ff 81bb 4330 133e
000003c0: a1cf 743d ed63 533c 3a9e c5bd 38e1 ac3c
000003d0: 5e2b 2b3d b717 533d f6d4 b53d 85d3 ce3d
000003e0: 7164 003d 8ce9 e43d 991f 43bc 4f46 8bbd
000003f0: 94bf 223e 109a bebc f7d6 ae3c d75e 593d

fc2.weight f4 [2, 256]
-0.049776673 0.1917688 -0.13788651 0.088619806 -0.22096936 -0.12015241 -0.023761157 -0.20139144
0.16568747 -0.080988996 0.17788313 -0.042851448 0.032340296 0.19053836 -0.08838412 -0.09638584
-0.08081526 -0.14651775 -0.11389002 -0.0931635 0.1272966 -0.114755735 -0.12108209 -0.14629415
0.14958446 -0.026378846 -0.31846076 -0.12691094 -0.5040723 0.2085798 -0.06540174 -0.01143001
0.15560296 0.09504301 0.10928988 -0.0605318 -0.11696874 -0.11979523 0.09786714 0.13603236
0.15738668 0.11461704 0.055561762 -0.11294422 -0.046758283 -0.005670607 -0.018192152 0.08903783
-0.017836064 0.29134628 -0.11177491 -0.06930027 -0.0066527603 -0.06646651 -0.08248364 -0.29172885
0.09962581 0.19563954 -0.02737256 -0.08632763 -0.109391615 0.21057945 0.08663614 -0.13697372
-0.057337094 0.13175502 0.17845051 -0.03884326 0.16496442 0.15431237 0.07492386 0.20594092
-0.039066028 0.18469505 -0.29214823 0.09359906 0.079053074 0.006188514 -0.10271312 0.13315508
-0.12897667 -0.32393402 -0.07402767 0.0123823555 0.16740485 0.11231507 -0.08867551 0.023184793
-0.009307562 0.1707199 -0.21363379 -0.10348882 -0.006062571 -0.05802105 -0.07163269 -0.06104667
0.16549784 -0.16184494 -0.06371453 -0.051545724 0.014586884 -0.0959442 0.15516639 0.16133088
0.15303782 -0.13383283 -0.0069084866 -0.096030004 -0.046006493 -0.026871417 0.14793596 0.007952071
0.17936711 -0.041620098 0.115052 -0.11743464 -0.09602631 0.14451748 -0.199144 0.07215764
-0.19213174 0.105835356 0.031258345 -0.13626942 0.093530156 -0.08576584 -0.09817186 0.19139253
-0.0275708 -0.0041387435 -0.16500181 -0.1252444 0.115607284 0.057541355 -0.2069323 0.18410358
-0.07985178 0.030071009 -0.21661638 0.12535055 0.096281864 0.07160114 -0.010054679 0.14898455
0.11939131 0.06850139 0.08825908 0.07307408 0.17496522 0.17347145 0.008021505 -0.3060883
0.036504198 0.13938402 0.023484726 -0.14241564 -0.084695555 0.01631467 0.12531622 -0.03803521
-0.03632544 0.06115549 -0.11114842 -0.015957385 0.18600897 -0.41613713 -0.12462563 -0.11875149
-0.2903215 0.03624518 0.110617235 0.005384892 -0.1433212 -0.13722299 0.042253617 -0.11606837
0.28159833 0.094051495 -0.09435717 0.1373494 0.07840403 -0.046829715 -0.08518583 0.075507976
0.24192339 0.09729987 0.01953993 -0.4368852 0.1251034 0.12907305 -0.044149518 0.06958838
-0.038061947 0.18064258 -0.044593178 -0.020031113 0.12920246 -0.033653494 0.066924825 0.29577145
-0.017721351 -0.16775113 -0.043709207 -0.09439059 0.12704273 -0.22037001 0.019541912 0.025247639
-0.009291684 0.13727619 0.123562716 -0.08523471 -0.014991475 -0.042993534 -0.11628639 -0.34363264
-0.06998873 -0.035942636 0.050774135 0.13951582 0.01806337 -0.072855696 -0.07629525 -0.09333409
-0.13496491 -0.19286034 -0.1315988 0.02580505 0.124614 -0.00022460721 -0.011138741 0.28190526
0.07488975 -0.057241224 0.1214697 0.12627226 -0.07645045 -0.19333026 0.06881004 -0.24250782
0.15769452 -0.033214446 0.05054044 0.045502827 -0.1705074 -0.12406451 -0.091349654 0.088405244
0.19106719 -0.24455558 0.16670157 -0.01609098 0.057970926 0.1071229 0.20660517 -0.13534528
00000000: a0e2 4bbd 0a5f 443e 1f32 0dbe 4d7e b53d
00000010: cb45 62be 7712 f6bd c2a6 c2bc 8f39 4ebe
00000020: faa9 293e 8fdd a5bd ff26 363e 0085 2fbd
00000030: 4277 043d 7d1c 433e bc02 b5bd f065 c5bd
00000040: 7982 a5bd c008 16be 2c3f e9bd 81cc bebd
00000050: 0a5a 023e 0e05 ebbd e3f9 f7bd 22ce 15be
00000060: ab2c 193e 7318 d8bc 4a0d a3be f1f4 01be
00000070: e20a 01bf f195 553e 59f1 85bd f044 3bbc
00000080: 6256 1f3e e9a5 c23d 5fd3 df3d 31f0 77bd
00000090: 4f8d efbd 3457 f5bd 916e c83d 114c 0b3e
000000a0: f929 213e 57bc ea3d bb94 633d 4d4f e7bd
000000b0: 9d85 3fbd 80d0 b9bb b507 95bc 7759 b63d
000000c0: f01c 92bc 572b 953e 3eea e4bd 4ded 8dbd
000000d0: 66ff d9bb 981f 88bd 2fed a8bd 7c5d 95be
000000e0: 9e08 cc3d bb55 483e 6b3c e0bc 8acc b0bd
000000f0: b608 e0bd 24a2 573e 4a6e b13d d742 0cbe
00000100: 4dda 6abd caea 063e bbbb 363e 1c1a 1fbd
00000110: 6fec 283e 1004 1e3e ae71 993d 2de2 523e
00000120: b303 20bd b320 3d3e 7494 95be ddb0 bf3d
00000130: 94e6 a13d 05c9 ca3b 425b d2bd ce59 083e
00000140: 7612 04be aeda a5be d29b 97bd 5ddf 4a3c
00000150: 2d6c 2b3e 7205 e63d 819b b5bd 09ee bd3c
00000160: bf7e 18bc 33d1 2e3e d1c2 5abe f2f1 d3bd
00000170: 88a8 c6bb 7ba7 6dbd 29b4 92bd 130c 7abd
00000180: 4478 293e aeba 25be c37c 82bd 9c21 53bd
00000190: d3fd 6e3c 657e c4bd f0e3 1e3e ec33 253e
000001a0: f2b5 1c3e 790b 09be 9660 e2bb 61ab c4bd
000001b0: 4e71 3cbd 7221 dcbc 867c 173e 6749 023c
000001c0: 03ac 373e d679 2abd 62a0 eb3d 9381 f0bd
000001d0: 71a9 c4bd 64fc 133e 68ec 4bbe 62c7 933d
000001e0: 2fbe 44be 35c0 d83d c008 003d 368a 0bbe
000001f0: bd8c bf3d 00a6 afbd 540e c9bd 67fc 433e
00000200: 29dc e1bc 4c9e 87bb 3cf6 28be 1140 00be
00000210: 83c3 ec3d 7cb0 6b3d 10e6 53be a685 3c3e
00000220: 5489 a3bd 7a57 f63c afd0 5dbe e55b 003e
00000230: 6d2f c53d 9ea3 923d 61bc 24bc 688f 183e
00000240: 6e83 f43d 754a 8c3d 2dc1 b43d dda7 953d
00000250: 152a 333e 80a2 313e a16c 033c 9bb7 9cbe
00000260: 6d85 153d afba 0e3e 0a63 c03c 68d5 11be
00000270: dd74 adbd 58a6 853c e552 003e cfca 1bbd
00000280: fcc9 14bd 2e7e 7a3d c8a1 e3bd 10b9 82bc
00000290: 2379 3e3e ed0f d5be b93b ffbd fb33 f3bd
000002a0: 05a5 94be d375 143d 4a8b e23d c073 b03b
000002b0: cbc2 12be 2f84 0cbe 2112 2d3d 41b5 edbd
000002c0: a82d 903e 129e c03d 553e c1bd 52a5 0c3e
000002d0: 4b92 a03d 84d0 3fbd e975 aebd eda3 9a3d
000002e0: c4ba 773e 2745 c73d 3412 a03c 6baf dfbe
000002f0: 1b1b 003e ba2b 043e 20d6 34bd 5a84 8e3d
00000300: d8e6 1bbd 5efa 383e 56a7 36bd 4a18 a4bc
00000310: a64d 043e 3fd8 09bd e20f 893d 5b6f 973e
00000320: 5e2c 91bc f4c6 2bbe 6d08 33bd db4f c1bd
00000330: 7d17 023e ada8 61be 5c16 a03c 23d4 ce3c
00000340: 263c 18bc 2192 0c3e 730e fd3d 898f aebd
00000350: ce9e 75bc fd19 30bd 8f27 eebd 9ef0 afbe
00000360: 4056 8fbd 9638 13bd 8af8 4f3d 3cdd 0e3e
00000370: a2f9 933c 5e35 95bd af40 9cbd f225 bfbd
00000380: 3e34 0abe 2e7d 45be d6c1 06be 1d65 d33c
00000390: a035 ff3d 8a84 6bb9 447f 36bc e355 903e
000003a0: cc5f 993d c675 6abd 1bc5 f83d 844d 013e
000003b0: 0e92 9cbd 5ef8 45be 47ec 8c3d f853 78be
000003c0: ac7a 213e df0b 08bd 7e03 4f3d 2c61 3a3d
000003d0: 7e99 2ebe 8915 febd 8715 bbbd cf0d b53d
000003e0: 1ea7 433e c76c 7abe d1b3 2a3e 3bd1 83bc
000003f0: ec72 6d3d 4063 db3d 4e90 533e f497 0abe

fc2.bias f4 [2]
-0.06091908 0.05529894
00000000: 4986 79bd 2481 623d
