checkpoint_critic1.pth (torch_old, 424172 bytes, 7 tensors)

fcs1.weight f4 [256, 24]
000000 07 09 d3 3c 10 bb 24 3f 70 0b dc 3b 49 4e dc bb
       0.02576114 0.64347935 0.0067152306 -0.0067231995
000010 fb d8 de 3d f3 38 67 bf 15 ff 42 bd 3f d2 e7 bc
       0.108812295 -0.9032127 -0.047606546 -0.028298495
000020 29 f9 7a bd 2c c9 33 3f a6 e5 f0 b9 17 cb 50 3e
       -0.061272774 0.7022884 -0.0004594747 0.20389973
000030 ce dd 48 3d 5f 89 ae bf f3 62 9a b7 7b b8 50 3e
       0.049039654 -1.3635672 -1.8404307e-05 0.20382874
000040 e6 42 d9 bd b0 57 38 3f d0 1f 8c bc 64 e7 92 3d
       -0.10608463 0.720088 -0.017105013 0.071730405
000050 99 30 96 3a 6a 73 00 c0 d9 a7 f7 bb 81 69 84 3d
       0.0011458575 -2.0070443 -0.007557851 0.06465436
000060 3b f2 fa 3d 40 87 27 3f 9f 38 15 3d 71 0d ce bd
       0.12253233 0.6544075 0.03643095 -0.100611575
000070 18 da 1d 3e b7 31 21 be c7 bf b9 3c 99 57 fa bd
       0.15415227 -0.15741621 0.022674454 -0.12223739
000080 86 7b b8 3d 37 42 33 3f 6f af 4a be 1d f9 dc 3d
       0.09007935 0.7002291 -0.19793485 0.10789702
000090 35 9e c2 3e 77 5c bf be 9d e4 34 be a1 b2 06 3e
       0.38011327 -0.37375233 -0.17665334 0.13154079
0000a0 3a 39 16 3e 42 e7 0a 3f ee 5c 03 3c ad f5 3f be
       0.14670268 0.5425912 0.008017762 -0.18746062
0000b0 44 ce 0e 3f f1 9d 76 be 18 d1 07 3d 56 20 7a be
       0.55783486 -0.24083687 0.03315839 -0.24426398
0000c0 fb ce 62 3e e6 09 2a 3e 81 01 0d 3c ad c7 9e bd
       0.2214927 0.16605338 0.008606316 -0.07752929
0000d0 da fa 30 bd eb 46 11 be 0c a0 ad bc c6 28 18 be
       -0.04320798 -0.1418721 -0.02119448 -0.14859304
0000e0 bb 67 75 3e 0a fa 1f 3e d5 ff 55 3c 83 65 1d be
       0.23965351 0.15622726 0.013061483 -0.15370755
0000f0 c4 b2 18 3d 47 d0 b5 be 67 0e b3 bd 25 4d 1c be
       0.03727986 -0.35510466 -0.087429814 -0.15263803
000100 3e e8 b6 3e bc 80 18 3e 3c 51 c0 bd 7d c8 b9 3d
       0.35724062 0.14892858 -0.09390494 0.09071443
000110 1e 16 39 3d 9c d9 da be ad 5e d6 3b 1e 4e 0f 3e
       0.04518711 -0.42744148 0.006542048 0.13994643
000120 88 36 ba bd 6b cd 3e 3f 85 4f ba bc fb 1e 75 3d
       -0.09092432 0.7453219 -0.022742996 0.059844
000130 7e dd 02 bd 2c 3f 17 3e c4 05 09 3d 55 3a e9 3d
       -0.031949513 0.14770192 0.033452764 0.11388079
000140 f7 19 15 be 0e ca 41 3f 30 84 23 3d 49 18 48 3e
       -0.14560686 0.75698936 0.039920986 0.19540514
000150 35 b5 54 bc d7 71 fd be 0d 2d 06 bd 51 a9 42 3e
       -0.012982656 -0.49500915 -0.032757808 0.19009902
000160 2a 0a 87 be b8 b8 72 3f 41 ef 4a bc 25 51 93 3e
       -0.26374942 0.9481311 -0.012386144 0.28772846
000170 af 21 b4 bc cb 38 e1 bf 30 6c ff bc 49 49 8b 3e
       -0.021988718 -1.7595457 -0.031179518 0.2720435
000180 b8 68 3b 3d f5 a6 89 3d e5 42 dd 3c e1 e7 14 3d
       0.045754164 0.06721298 0.027009437 0.03635395
000190 9e 62 0b be 67 a9 da be d0 e5 26 bd 4a f9 fa 3c
       -0.13611838 -0.4270737 -0.04074651 0.030636448
0001a0 26 d2 1f 3e 80 cf 9c bc c3 ec c3 3c bd 9c 24 3d
       0.15607509 -0.019141912 0.023916608 0.04018854
0001b0 e4 15 aa bd b7 48 46 be 5f c7 5d bd 49 db d4 bc
       -0.083049566 -0.19363676 -0.054145213 -0.02598347
0001c0 8f 72 85 3e af 7b e3 bc 19 53 dc 3c 60 45 26 3d
       0.26063964 -0.027768938 0.026895093 0.040593505
0001d0 a6 8a 0f 3e 74 79 ef bd 64 02 81 bd 92 bc 0e 3d
       0.14017734 -0.11693087 -0.06299284 0.034847803
0001e0 ef 16 54 3e af 85 02 3e 42 88 a8 ba 9a f4 cc 3d
       0.20711873 0.12746309 -0.0012857991 0.100075915
0001f0 da f7 42 be 11 5d 57 bf f7 b7 05 3d bc b7 26 3d
       -0.1903986 -0.84126383 0.032646146 0.040702567
000200 83 d6 a9 3e 54 6f 19 3e 0f b1 20 3d 90 46 d0 bc
       0.33171472 0.14983875 0.039231356 -0.025424272
000210 83 bd c5 be 76 23 40 bf 28 b4 f7 bc 98 ad a5 bd
       -0.38621148 -0.7505411 -0.030237272 -0.08089751
000220 13 35 5a 3f 94 6f 8b 3e e1 ef 8c bc b0 95 09 3e
       0.85237235 0.27233565 -0.017204227 0.13436007
000230 0e e2 04 bf 8e a7 fa be cc 3c d5 bc 04 46 2a 3e
       -0.5190743 -0.4895596 -0.026029967 0.16628271
000240 f8 6d 25 bd 24 ed e1 be 58 d3 ac bd c7 9c 06 3e
       -0.040388077 -0.44126236 -0.08438748 0.13145743
000250 04 d6 42 3e f1 34 a6 bc 87 22 e2 bb bc 40 02 3e
       0.19026953 -0.020288916 -0.0069010886 0.12720007
000260 ac 0d 46 3d e0 a6 dd be 7d c3 a8 3d e2 97 73 be
       0.048352882 -0.43291378 0.082404114 -0.23788407
000270 1f 92 d5 3e 98 66 a9 bf 26 60 47 3d fa ed 7c be
       0.41713044 -1.3234434 0.04867568 -0.24700156
000280 ba cf 24 3e 57 49 ef be a8 4d 99 3d 5e 5a 7d 3e
       0.16094866 -0.4673564 0.07485515 0.24741504
000290 ab 21 11 3e 90 e7 48 be 0e 13 7f bc 7c 2a 3a 3e
       0.14173 -0.19619584 -0.015568508 0.18180269
0002a0 60 0f 0b 3e f9 2a eb 3d 60 c3 88 3c 32 74 d8 3b
       0.13580084 0.11482806 0.016694725 0.0066056484
0002b0 02 aa 06 3d 0c 20 88 bc d8 b3 3c bd 20 d7 69 3c
       0.032876976 -0.016616844 -0.04606995 0.014272481
0002c0 73 9c 28 3e 98 28 d2 3d d1 eb 5d 3b 13 0b 5d bd
       0.1646593 0.10261649 0.0033862481 -0.05396564
0002d0 f3 80 7f bd ff 0f a4 39 dd ea 44 3c cc c5 80 bd
       -0.062378835 0.00031292436 0.012018886 -0.06287727
0002e0 ea 0c 9b 3e 29 94 05 3e c9 ba 0d bc b8 03 86 3d
       0.3028329 0.130448 -0.00865049 0.06543678
0002f0 b1 4c ef bd f5 cc a0 be 16 cb 51 3b 96 e9 5b bc
       -0.116845496 -0.3140637 0.0032011918 -0.01342239
000300 19 68 9d 3e 85 03 99 3d d1 9f 44 bd cc f3 24 be
       0.30743483 0.074713744 -0.048003975 -0.16108626
000310 1c 7c 33 3d 4a ae 0b 3d 89 61 32 bd 1f 5f c1 bd
       0.04381953 0.034101762 -0.043550048 -0.09441971
000320 11 67 97 3e 3c 55 7c bc e2 7d ef bb 8f b8 32 3d
       0.2957082 -0.015401181 -0.0073087076 0.04363304
000330 98 cd 06 be be 4d e0 bd b5 e0 78 bd 95 b7 fc 3c
       -0.13164365 -0.10952328 -0.060761172 0.030849257
000340 f2 29 fb 3d 67 dd 99 3c b5 b8 3a bc f9 20 35 3c
       0.1226386 0.01878233 -0.011396577 0.011055225
000350 34 63 49 bc 41 9f 32 bf 32 b0 8d bc 48 ba 9e bd
       -0.012291718 -0.6977425 -0.01729593 -0.07750374
000360 9b e6 e8 3c 74 c5 e0 3d 90 e1 25 bd f6 44 4b bc
       0.028430274 0.10975161 -0.040498316 -0.012406578
000370 52 87 bd 3f e3 10 ce bd 28 ee 54 3d 70 66 81 3d
       1.4806921 -0.10061815 0.051984936 0.063183665
000380 ff fc be bc 39 1e b2 3b 9b 1e 5c 3d 1f c6 93 bc
       -0.023313997 0.0054357317 0.053740125 -0.018038807
000390 fb 70 36 40 c6 c4 d1 3d ed c6 2d bd 62 02 93 bd
       2.8506458 0.1024261 -0.04242604 -0.07178189
0003a0 87 ad 39 be ea 3d 76 bc f4 2a 45 3d 4d 15 a2 bc
       -0.18132602 -0.01502941 0.048136666 -0.019785548
0003b0 f2 af 0c 40 f1 a8 7a 3e ff 77 c7 bc e1 88 c4 bb
       2.1982388 0.24478509 -0.02434921 -0.0059977625
0003c0 f3 3d a7 bd 00 9a 67 be ba 1d 18 bd df 97 00 3d
       -0.08166113 -0.2261734 -0.037137724 0.031394836
0003d0 04 df 16 3f 28 0f 8b 3e ee 1a 14 3c 66 ec 72 3c
       0.58934045 0.2716 0.009039624 0.01482687
0003e0 28 dd 37 3e cb d8 14 be 13 d5 ba bc 36 42 2b 3d
       0.17955458 -0.14535825 -0.02280668 0.04181119
0003f0 e9 b9 10 be 79 8a ee 3e a9 54 21 3c 03 b8 86 3d
       -0.14133419 0.4659002 0.009846845 0.06578066

fcs1.bias f4 [256]
000000 79 97 05 3e 92 a8 4c bd ad a0 b2 be 6d 79 7b 3e
       0.13046063 -0.04996545 -0.3488821 0.24558039
000010 75 58 8f be 8b 7f 64 bf 7f b2 92 bc e9 83 40 bf
       -0.27997175 -0.89257115 -0.01790738 -0.7520128
000020 29 91 bf be f2 83 0b 3f e5 da 41 bf 77 b7 08 bf
       -0.37415436 0.5449821 -0.7572463 -0.53404945
000030 57 90 2d bb 23 63 6b bd a4 7a 46 be 64 9a 1e 3d
       -0.0026483738 -0.05746759 -0.19382721 0.038721457
000040 bd ac 08 3f 84 62 20 bf 0c 1d 0c bf 12 2d 0d bf
       0.5338858 -0.6265032 -0.5473182 -0.55146897
000050 e5 7d d0 be f4 e9 21 bf 6e df 79 be 36 91 e8 bd
       -0.4072105 -0.6324761 -0.24401638 -0.11355822
000060 31 d9 90 be a9 3b a3 3e fd 7b 90 be c9 b4 d5 be
       -0.28290704 0.31881455 -0.28219596 -0.4173949
000070 ea e1 7d bd 65 30 de bc 49 31 05 bf 26 1b 51 bf
       -0.061983027 -0.027122686 -0.5202833 -0.8168205
000080 dc 9e 0f bf 3e b9 6a be 32 0b 22 bf c5 d9 d2 be
       -0.56101775 -0.22922227 -0.6329833 -0.4118177
000090 70 f0 52 bf 77 75 1f be d1 3d d4 3d 78 8c 37 bf
       -0.8239813 -0.15572153 0.10363353 -0.71698713
0000a0 50 e4 e1 be 24 3d de be 76 41 28 bf f5 5e 56 be
       -0.441195 -0.43406022 -0.65724885 -0.2093466
0000b0 bf 8a de be 7e 0d 1a bf d3 42 ab be cb 87 11 3e
       -0.4346523 -0.6017684 -0.3344942 0.14211957
0000c0 e9 01 e8 be 23 cb 01 bf 29 3c 95 3e af 59 dd be
       -0.45313957 -0.5070059 0.2914746 -0.43232486
0000d0 61 ef bd ba cb 92 19 bf 72 d0 28 bf d2 1a d9 be
       -0.0014490896 -0.59989613 -0.6594306 -0.42403275
0000e0 ba 20 18 bf 6e 7c 1f bf 7b e8 5e 3e 78 12 0b bf
       -0.59424937 -0.6229924 0.21768372 -0.54325056
0000f0 1d 6e 03 bf 7c 21 18 bf 29 17 29 bf 3e 10 31 bb
       -0.51339895 -0.59426093 -0.66050965 -0.0027017738
000100 1f 4d 8c bd 3c 19 24 bf 7b 6c 58 bf b2 ac c5 3e
       -0.06850647 -0.64101005 -0.8454053 0.3860832
000110 de a6 f6 be 1f cd bf bd f2 33 29 be 2c 7d 24 bf
       -0.48174185 -0.093652956 -0.16523722 -0.642535
000120 b2 54 e4 be 30 b5 0c bf e8 1a 1e bf 3d dc 4c bc
       -0.44595867 -0.5496397 -0.61759806 -0.012503681
000130 2f 07 0d bf 35 b2 d7 be 3c 07 3a bf 6a 5e b4 bd
       -0.55089086 -0.4212815 -0.7266729 -0.088070706
000140 72 5d f0 be 32 21 b0 be 89 b9 0a bf 62 d4 a3 be
       -0.46946293 -0.34400326 -0.54189354 -0.31997973
000150 e0 b3 5c be 1a f0 b5 be c4 ca 3c bf 70 b7 a0 be
       -0.21552992 -0.35534745 -0.73746896 -0.31389952
000160 d4 a2 61 3e 52 3b 1b bf c1 2e 2a 3f 25 d1 61 3e
       0.2203477 -0.6063739 0.6647759 0.22052439
000170 c6 02 17 be b3 d8 f4 3e eb a0 8a 3e bd 7f d6 be
       -0.14747152 0.47821578 0.27075896 -0.41894332
000180 db d1 32 bf 3c f1 16 bf 97 7f 31 bf d4 8b d5 be
       -0.69851464 -0.58961844 -0.6933531 -0.41708243
000190 c9 08 a3 be 5c 23 0e bf f7 ec 14 bf c1 5b a9 be
       -0.3184264 -0.55522704 -0.5817408 -0.33077815
0001a0 30 d6 de be fe c9 5b 3b 7d 94 1e 3c 5b 62 3b be
       -0.43522787 0.0033537145 0.009678957 -0.18299238
0001b0 bf 9e 04 bf 5d 21 ce be 5c c4 2b be 16 8a e2 be
       -0.5180473 -0.4025983 -0.16774124 -0.44245976
0001c0 15 5c c4 be c5 58 2e bf 7f 29 52 be 34 e2 07 3f
       -0.38351503 -0.681042 -0.20523642 0.53079534
0001d0 f8 0d bf be aa 43 46 be db bd 00 3f fa 03 b3 bd
       -0.37315345 -0.1936175 0.50289696 -0.08740993
0001e0 87 ca 17 bf 1d f5 0b bf f6 56 06 bf 95 d3 6f be
       -0.5929341 -0.5467089 -0.5247644 -0.23420556
0001f0 c5 b7 49 bd 5a 04 fe be ae bd 21 3e 43 76 bf be
       -0.049247522 -0.49612695 0.15795013 -0.37394914
000200 8b c7 2b be 89 21 05 bf 17 e9 98 be b9 cb 1c bf
       -0.16775338 -0.52004296 -0.29865333 -0.61248356
000210 94 04 8f 3d fe 47 bc be 80 a2 0b 3e d1 3c 88 be
       0.06983295 -0.36773676 0.13636208 -0.266089
000220 31 49 71 bc 33 0f 6c be 66 87 09 bf 80 ea cd bd
       -0.014726923 -0.23052673 -0.53722227 -0.10054493
000230 60 e2 d7 be a1 68 e7 3c 2b 63 a1 be ce 95 8a 3e
       -0.42164898 0.028248133 -0.31520972 0.27067417
000240 3a 2a 67 3d f6 a3 1b bf 7b fd 96 be d2 1a 02 bf
       0.056436755 -0.6079706 -0.29490265 -0.50822175
000250 ce e4 15 bf 5d d7 84 be 23 70 22 be ec b4 2f bf
       -0.58552253 -0.2594556 -0.1586309 -0.6863544
000260 9a 0f f3 3d 95 7c 39 bf 0b 7d ef be 58 2d 25 bf
       0.1186821 -0.7245572 -0.46775088 -0.64522314
000270 3d 0c c2 be 59 b3 19 be 87 8e 15 bf 78 ce fb be
       -0.37899962 -0.15009822 -0.58420604 -0.4918096
000280 9f 56 77 be bf 78 6a 3e 21 7b ae be 41 f6 42 bf
       -0.24154137 0.22897623 -0.34078315 -0.76157004
000290 88 86 11 bf aa 54 12 be 19 03 bd 3e b3 c7 e6 be
       -0.56845903 -0.1429011 0.36916426 -0.45074233
0002a0 05 bf e8 be 27 4d 27 bf 6b d3 10 be aa a3 c7 3c
       -0.45458236 -0.653521 -0.1414315 0.024370033
0002b0 5a 81 01 bf 03 85 f4 be bc b5 f0 be c4 6c 1b 3e
       -0.50588 -0.4775773 -0.47013652 0.1517821
0002c0 03 50 77 3e 6f f5 fd be e1 cd d0 bd 16 0b 21 3d
       0.24151616 -0.49601313 -0.10195518 0.039317213
0002d0 6e 58 88 be 45 14 a1 be 8f 26 eb be 4d 7d ac be
       -0.26629966 -0.31460777 -0.45927855 -0.33689347
0002e0 c9 32 33 bf 23 c7 ea 3d 5e a9 f8 b8 26 d3 6e be
       -0.69999367 0.114637636 -0.000118571086 -0.23322734
0002f0 2b fa 57 3e 16 33 cc 3e ee 54 09 bf 76 ac fb be
       0.21091525 0.39882725 -0.5364522 -0.49155015
000300 73 62 b8 bd 72 b7 9a bd 5c 52 2f 3e e5 35 d3 be
       -0.09003153 -0.07554521 0.17121261 -0.41252056
000310 5c 10 2e bf 76 b1 f3 be 83 20 38 bf 93 cc f6 be
       -0.6799371 -0.4759633 -0.7192461 -0.48202953
000320 59 8d f8 be 5c 2c 20 bf f8 bb 99 be 48 e5 f3 be
       -0.4854534 -0.6256769 -0.3002622 -0.47635865
000330 69 69 1c bf 25 79 56 bd 12 cd d3 be 62 78 c6 be
       -0.61098343 -0.052361626 -0.41367394 -0.3876372
000340 d3 5b 32 3f ce 4e d7 be a2 bf f9 be 38 bc b5 be
       0.6967136 -0.4205231 -0.48779017 -0.35495162
000350 c7 ef ee 3d 48 75 24 bf 2e 97 84 3e dd f6 07 3e
       0.11666828 -0.64241457 0.2589659 0.13277765
000360 7e 76 8c be 5a e7 0f bf 96 34 b2 3d 7b f7 10 3e
       -0.27434152 -0.5621239 0.08701436 0.14156906
000370 5e 32 37 3e bd 20 24 bf ad a5 6b bd 4b 8f 58 bd
       0.17890307 -0.64112455 -0.057531048 -0.05287103
000380 e2 54 1f bf 0e 46 3e bf ef 58 d4 bd dd 55 20 bf
       -0.62238896 -0.74325645 -0.10368525 -0.62631017
000390 15 55 3f bf 77 68 40 3e 94 20 18 be e7 7e 8d be
       -0.747392 0.1878985 -0.14856178 -0.2763588
0003a0 5e 1f b1 be 13 3e 1f 3e 4f 34 9e bd 75 91 25 be
       -0.34594244 0.15551023 -0.07724821 -0.16168769
0003b0 92 1b 22 bf c7 55 30 bf 9e 80 80 be 98 e1 e1 bd
       -0.6332332 -0.68880886 -0.25098127 -0.11029357
0003c0 92 72 e2 be 39 ba 80 3d 6f fd 01 bf 0b d6 f5 be
       -0.44228035 0.06285519 -0.50777334 -0.48014864
0003d0 2d 92 0b bf c5 77 0c bf 50 61 8b be e8 5e 98 be
       -0.5451992 -0.54870254 -0.2722268 -0.29759908
0003e0 c1 42 bc bc 4e 2e 1e be d4 21 02 bf a3 13 b3 be
       -0.02298105 -0.15447351 -0.5083287 -0.3497592
0003f0 b2 97 96 be db 99 ff be f4 2e 13 bf 64 76 28 bf
       -0.2941261 -0.4992207 -0.5749352 -0.6580565

fc2.weight f4 [256, 258]
000000 85 7d e0 3c 0b 0b a2 bd 62 9a d1 3d 41 28 b9 bd
       0.027403602 -0.079122625 0.10234524 -0.09040881
000010 d7 df 29 3e 21 d0 3a 3e 9b bc 84 3e 64 d5 17 3e
       0.16589294 0.18243457 0.25925145 0.14827496
000020 9c e8 23 3e 9e 98 ad be 08 d3 bc bc e4 d2 21 3e
       0.16006702 -0.339055 -0.023049846 0.15803105
000030 44 22 0e be 69 7a 6a bc 83 36 0e bd 5e d3 57 bd
       -0.13880259 -0.014311411 -0.034719955 -0.05269181
000040 f5 d3 cd be 0b 0a 67 3e 9d cb 43 be 6a 9e 37 3d
       -0.40200773 0.22562425 -0.19120641 0.04482881
000050 d1 58 b0 3d 19 64 1c 3e be 82 43 3e e1 44 81 bd
       0.086106904 0.15272559 0.19092843 -0.06311966
000060 1c 80 e8 3d f4 11 fd bd 68 d7 a3 3c 45 69 d1 3d
       0.1135256 -0.1235694 0.020000175 0.10225157
000070 c6 20 35 bc b7 7f c7 bd ee 62 89 3d 47 23 18 3e
       -0.011055177 -0.097411565 0.067083225 0.14857207
000080 b0 4f 15 3e 3e 40 37 bc 83 cf 28 3e 40 1e 8f 3d
       0.1458118 -0.01118475 0.1648541 0.069881916
000090 b6 70 cc 3d ec 7b f7 3d 3e 2c 96 bc c5 37 33 3d
       0.099824354 0.12084183 -0.018331643 0.043754358
0000a0 ea 99 b1 bd 22 59 ea 3d 48 dc 16 3e 86 4d 38 3c
       -0.08671935 0.11442782 0.14732468 0.011248952
0000b0 31 46 03 3e e8 33 11 3e eb b6 ae 3d 6e 6c 9f be
       0.12819745 0.14179957 0.085309826 -0.31137413
0000c0 71 45 14 3e 47 eb 42 3e fb a2 bb 3c 4d ee ba 3c
       0.14479615 0.19035064 0.022904864 0.022818709
0000d0 9a 3c 44 3e e3 85 26 3e e6 97 4d 3c df 24 1c 3e
       0.19163743 0.16262011 0.012548422 0.1524844
0000e0 15 da 0b 3e ca 60 92 3d 32 c6 18 be 60 6f 14 3e
       0.1365741 0.07147367 -0.14919356 0.14495611
0000f0 b9 04 6e 3d ff 50 93 3d a1 e4 8b 3d 1a 4b 82 bd
       0.058109973 0.07193183 0.06830717 -0.06361981
000100 8a 7d 11 3e 18 a1 2e 3e e6 ba d8 bd f9 56 02 3e
       0.14208046 0.1705364 -0.10582523 0.1272849
000110 a3 fb a5 3d 1f 9f ca bd dd e6 45 be 24 20 e3 3d
       0.081046365 -0.09893631 -0.19326349 0.11090115
000120 86 3b dc 3d 90 c7 a5 3d 21 c2 36 3d 98 7c 2c be
       0.10753541 0.08094704 0.04461873 -0.16844404
000130 9a 32 47 3d 17 09 53 3e 75 03 82 3d 28 f8 01 3d
       0.04863224 0.20608936 0.063483156 0.0317308
000140 d2 18 06 3e ef 0a fc bd 04 b2 29 3e ac 83 91 bd
       0.13095406 -0.12306773 0.16571814 -0.071051925
000150 56 3b d9 3d 9c c5 1a 3e 0f 58 37 bc af 28 8f 3d
       0.106070206 0.15114444 -0.011190428 0.06990182
000160 f9 4f 5a 3d f2 69 7f 3d 96 f3 21 be bc b6 37 bc
       0.053298924 0.062356897 -0.15815577 -0.011213001
000170 b8 be fe bd ad e3 74 be 35 72 f0 bd a3 c6 2e 3e
       -0.124387205 -0.23914976 -0.11740533 0.17067961
000180 3c d6 20 3e 2a 77 c8 be 44 a0 d3 3d b3 8b 38 3e
       0.15706724 -0.39153415 0.103333026 0.18022041
000190 8b 8d 2e 3e 82 02 8d 3d c8 32 99 3d d2 ff 0f be
       0.17046182 0.06885244 0.07480389 -0.14062431
0001a0 ba ff 52 3e 45 c5 20 3c 41 2f a6 bd 13 08 c4 3e
       0.20605364 0.009812658 -0.08114482 0.3828741
0001b0 f3 27 7c 3d d1 a8 9b bd e4 0b f1 bc 89 64 9f 3c
       0.061561536 -0.076005585 -0.029424615 0.019457119
0001c0 cc 31 d0 3c 9b 79 34 3d 62 e6 2d 3d 25 e6 7c 3e
       0.02541437 0.044061285 0.04245604 0.24697168
0001d0 0b bc 72 3c 26 c1 19 be 8d 87 13 be aa 95 05 be
       0.014815341 -0.15015087 -0.14407177 -0.13045374
0001e0 ff 63 e2 3d 83 b9 21 be c5 e1 9a 3d 9c ff 41 bd
       0.11054229 -0.15793423 0.07562593 -0.04736291
0001f0 aa 95 a2 3b b2 14 bb bd 34 7f d1 bd 90 1e b9 bc
       0.004961689 -0.09134807 -0.1022934 -0.022597581
000200 46 4f 28 3c 72 25 e7 3d 18 42 68 3e db 34 35 3e
       0.0102728065 0.11286439 0.22681463 0.17695944
000210 48 ef 15 be 04 16 d4 bc 07 ad fd 3d fa 45 e8 bd
       -0.1464206 -0.025889404 0.12386518 -0.11341472
000220 e7 fe 38 bd 4c 82 83 3d 5c 5c 06 3c 2a 3e 38 3d
       -0.04516497 0.064213365 0.008200731 0.04498116
000230 54 8a fd bd 2f 7a ff 3d 89 48 e7 bd 55 ec 39 3a
       -0.123798996 0.124744765 -0.11293132 0.0007092406
000240 de 30 86 3c b8 64 ab bb d9 65 8f be 68 c4 f8 3d
       0.016380724 -0.0052305125 -0.2800739 0.121468365
000250 3d b1 55 3d 2c 00 4e be 84 97 4a be 81 6b 1b 3d
       0.05217098 -0.20117253 -0.19784361 0.03794432
000260 6e e9 53 3d a8 e3 87 3d ca 00 4f 3e 32 01 71 3d
       0.051736288 0.06635219 0.20215145 0.05883903
000270 77 cd c6 3d 66 b3 95 bc b8 7d 32 3d 6a b1 ab 3d
       0.09707158 -0.01827402 0.043576926 0.083834484
000280 71 59 3f 3e 02 09 ba bd 3f 9d 29 3d 14 f0 3f 3e
       0.18686463 -0.09083749 0.041409727 0.18743926
000290 10 69 b4 bc 16 4e 1c be 97 2f 98 3c f4 d0 81 be
       -0.022022754 -0.15264162 0.01857738 -0.2535473
0002a0 4f 3b e7 3d ff a2 79 3c 47 ed ac bb 5b aa bf bd
       0.11290609 0.015236615 -0.005277309 -0.093586646
0002b0 c6 b9 0d 3c 62 57 b2 3e 11 f2 31 3e c2 d1 0c 3e
       0.008650249 0.34832293 0.17377497 0.13751891
0002c0 ae d4 55 be df e3 0c 3e 08 21 04 bd f2 02 4a be
       -0.20881912 0.13758801 -0.032258064 -0.19727686
0002d0 f3 fa b2 3d d0 53 b6 be 1c ef 84 3d 23 6e f7 bc
       0.08739271 -0.3561082 0.06490919 -0.030203884
0002e0 ca e7 3d 3e 02 55 9e bd de b0 38 be 92 ee 25 be
       0.18545452 -0.07731058 -0.1803622 -0.16204289
0002f0 e3 48 49 3e 10 96 4b bb 02 bf 7c 3e c5 17 ce 3d
       0.1965671 -0.0031064786 0.24682239 0.100631274
000300 96 08 76 3c 72 e6 de bd 4c 53 f9 3c 0b d8 03 3c
       0.0150166955 -0.10883798 0.030435227 0.008047114
000310 25 73 24 3e 86 6f 8e 3e 92 d6 57 bc 45 96 ed 3d
       0.16059549 0.2781946 -0.013173716 0.11600927
000320 ef 08 ed 3d 09 9d 2b 3d 33 05 79 3e e7 ec 58 3c
       0.115739696 0.041897807 0.2431839 0.013240076
000330 9e 72 21 3e 54 41 6b be 77 e5 a8 3d b4 ab 59 be
       0.15766379 -0.2297414 0.08246892 -0.21256906
000340 39 6b 1d 3e 7b bc 7d 3e cf 20 44 3e b8 6f 22 3e
       0.15372933 0.24778931 0.1915314 0.1586293
000350 54 e1 7b bd 64 af d4 3d 18 9c 5c 3c 46 8c 8e 3e
       -0.061494187 0.103850156 0.01346495 0.27841395
000360 a1 f3 ee 3d 94 e3 b1 bc 23 09 50 bd 85 de 7b 3e
       0.11667562 -0.021714963 -0.050789963 0.24596603
000370 f7 47 a2 3d 87 70 a1 3d c9 bf 6a bd 94 74 c6 3d
       0.079238825 0.07882791 -0.057311807 0.09690204
000380 e7 01 7d 3c 1a 0e 6a 3d 6c 87 8a be 39 b4 9c 3d
       0.015442348 0.057142355 -0.27056444 0.07651562
000390 74 10 cc 3d a5 c5 8e 3e 50 af 59 3d f2 7e b6 bc
       0.09964076 0.27885166 0.053145707 -0.02227733
0003a0 af 28 a4 bd 36 81 29 3e 9e 47 f7 bd 3b 73 61 3d
       -0.08015572 0.16553196 -0.12074207 0.055041533
0003b0 e9 21 ea 3d 90 80 14 3d ae 9d 16 bd 12 e3 67 3e
       0.11432249 0.03625542 -0.03677147 0.22645214
0003c0 c8 52 9f 3d 90 2f c0 3d da 72 d9 3d 63 7c 2a 3e
       0.07779461 0.09384072 0.10617609 0.16649012
0003d0 d8 59 1a be f2 b4 97 3d 37 70 3c 3d 34 1e f4 bd
       -0.15073335 0.074075595 0.046005454 -0.11919823
0003e0 3a 35 9b bd 18 23 67 3d ee 5c a4 3d a2 ac 3f be
       -0.075785115 0.056429952 0.080255374 -0.18718198
0003f0 4b d9 0a 3d c7 60 71 3e 74 95 fc bb 91 0c dc 3d
       0.033898633 0.23572074 -0.007708246 0.10744584

fc2.bias f4 [256]
000000 24 8f e2 bd 51 cd 0d bf 1e 81 be be 65 08 c9 be
       -0.11062458 -0.5539141 -0.37207884 -0.39264217
000010 7e 35 46 3c ac df 09 bf 1d 85 f3 be 63 42 bc be
       0.0120977145 -0.5385692 -0.47562495 -0.367694
000020 bf ff 31 bf 46 12 cd 3e dd 50 08 bf 31 16 82 be
       -0.6953086 0.40053004 -0.5324839 -0.25407556
000030 7e 81 29 bb 83 b5 8d be a7 fa a7 be fb 0e 59 3e
       -0.0025864537 -0.27677545 -0.3280842 0.21197121
000040 30 3f be be 6e 85 96 be ad 86 d3 be 49 5e fc 3e
       -0.37157583 -0.29398674 -0.41313687 0.49290684
000050 4d 24 e0 be a2 a1 1b be 97 7e a2 bd c0 c8 b3 be
       -0.43777695 -0.15198377 -0.07934301 -0.35114098
000060 54 55 75 be 57 51 0d bf 8b 0c dd be 07 ff 8b be
       -0.23958331 -0.5520224 -0.43173632 -0.27343008
000070 b1 03 e4 be f3 e7 d7 be 8f 9b c4 3e b7 ea 99 be
       -0.44534066 -0.4216915 0.38399932 -0.30061886
000080 d0 cb 23 be d7 1d 12 bf a8 35 aa be f9 27 cb be
       -0.15995717 -0.5707678 -0.3324406 -0.39678934
000090 53 4e b6 be 55 bd b0 be d6 cf f6 be db 0d ca be
       -0.35606632 -0.3451945 -0.4820544 -0.39463696
0000a0 80 f8 e4 be f6 a3 a1 be e6 9e 81 be 81 cb 31 be
       -0.4472084 -0.31570405 -0.25316542 -0.17362787
0000b0 11 d8 b2 be e4 9b fe be 89 b1 03 bf 44 e7 e6 be
       -0.3493047 -0.4972831 -0.5144277 -0.45098317
0000c0 46 58 c1 be 12 87 0a 3f 2f 7f b1 be c4 63 8b be
       -0.3776266 0.5411235 -0.34667346 -0.27224553
0000d0 b3 6e fe be d6 39 3f be 91 69 e5 be d0 37 54 be
       -0.49693832 -0.18674406 -0.44807103 -0.20724416
0000e0 7b 7d e9 3e 65 61 a5 be 0e 17 a7 be 85 f8 99 be
       0.45603547 -0.3230087 -0.32634777 -0.30072418
0000f0 6e 04 01 bf 89 68 c7 be 90 cf 81 bd a9 4b 8b be
       -0.50397384 -0.38946941 -0.063384175 -0.27206162
000100 9f 4d 9b be d5 3d 8e be 3e 35 87 3e 23 71 a0 be
       -0.30332658 -0.2778155 0.26407808 -0.31336316
000110 2f a5 03 bf e8 20 8f bd b5 54 d4 be f7 2e e5 be
       -0.51423925 -0.06988698 -0.41470876 -0.44762394
000120 f2 49 d1 be b6 95 f1 be b9 d7 00 3e e7 e3 07 bf
       -0.40876728 -0.47184533 0.12582292 -0.53082126
000130 4a 37 1a be fc 66 45 3e e8 d5 17 3c 55 1e 77 be
       -0.15060154 0.19277567 0.009267308 -0.24132665
000140 53 97 71 be 95 b8 fb be bd 69 ab be 59 b1 8d be
       -0.23592882 -0.49164262 -0.3347911 -0.27674368
000150 71 d2 31 bd 02 be ce bd 47 82 06 bf 76 9c b5 bc
       -0.043413583 -0.10094835 -0.5254254 -0.022169333
000160 92 d2 e0 be 54 22 a1 be 97 60 27 bf 7b 7c fd 3c
       -0.43910652 -0.31471503 -0.6538176 0.030943146
000170 e1 49 ba be 19 7f 8a 3e 8c a1 b7 be 34 5d 27 be
       -0.3638449 0.27050093 -0.35865438 -0.16344148
000180 d5 bb 28 3f 41 30 a8 be 7d 9c 14 be a8 0e a3 be
       0.6591161 -0.32849315 -0.1451282 -0.3184712
000190 2b c8 a0 be 57 f6 14 bf 62 57 70 3d 9e 79 3a 3f
       -0.31402716 -0.58188385 0.058677085 0.72841823
0001a0 12 5a 04 bf 3a 97 bf be 59 aa 01 bf 97 91 32 bf
       -0.51699936 -0.37420064 -0.50650555 -0.697534
0001b0 15 c6 1d 3b b5 28 1a bf 1a c6 82 be a7 2f b4 be
       0.0024074365 -0.60218364 -0.25541764 -0.35192606
0001c0 3d 79 b9 be dc 17 12 3e d3 e7 09 bf 2e 87 b0 b9
       -0.3622531 0.14266914 -0.5386936 -0.00033670053
0001d0 22 fa 8a 3e d1 6c 47 be 10 6b 59 be d8 cb cd be
       0.2714396 -0.19475104 -0.21232247 -0.40194583
0001e0 e7 79 ea be 00 68 d0 be fc 7b a9 bd b4 a3 98 be
       -0.4579613 -0.40704346 -0.08275601 -0.29812396
0001f0 d0 4e 17 bf 36 7c 02 bf 2c 10 aa bd b5 2c 5a bc
       -0.59104633 -0.5097078 -0.08303866 -0.013316323
000200 6a fa 00 bf f5 04 dc be 9a 50 65 3d dd 4f ab be
       -0.503821 -0.42972532 0.05598507 -0.33459368
000210 cf cb 62 be 31 cf dc be 13 1b 2a 3f b2 a7 a7 be
       -0.2214806 -0.43126824 0.6644756 -0.3274513
000220 70 cc dc be 27 6d d2 be a2 f1 a4 be 0a 44 0a bf
       -0.43124723 -0.41098902 -0.322156 -0.5401007
000230 01 53 25 bc eb 43 e1 be ac 56 d7 bd fa 6d f1 be
       -0.01009059 -0.4399713 -0.10514578 -0.47154218
000240 c3 19 e0 be 81 3c ad be e1 42 81 be f4 79 19 bf
       -0.43769655 -0.33835223 -0.25246337 -0.5995171
000250 a9 a7 03 bf 2e 9c eb bd 92 e3 a5 3e 02 83 15 be
       -0.51427704 -0.11504398 0.32400185 -0.14600757
000260 a0 a6 c6 be 8d 24 21 bf d1 bc ea 3e c1 97 cd be
       -0.38799 -0.629464 0.4584718 -0.40154842
000270 16 4f ae be 1a f5 0a be 53 a1 b1 be fa d3 2e bf
       -0.34044713 -0.13570061 -0.34693393 -0.682922
000280 d9 36 08 be 7b 2b 07 be 1d 2a 59 be 01 d9 94 be
       -0.13302173 -0.1320018 -0.21207471 -0.2907181
000290 62 6a c4 be f7 95 00 bd 30 29 ab be db 03 21 bf
       -0.38362414 -0.031393018 -0.3342986 -0.6289651
0002a0 bf 3c 6f be d6 2b 37 3e e7 00 44 3d 2e 24 8c 3e
       -0.23363017 0.17887816 0.047852423 0.27371353
0002b0 05 6c fe be 5e 06 a0 be 3c 6e 1b bf a8 f0 e7 be
       -0.49691787 -0.31254858 -0.6071508 -0.45300794
0002c0 ce 45 4f be 08 57 14 3f ef c6 22 bf 4a ed 13 bf
       -0.20241472 0.579453 -0.635848 -0.5778395
0002d0 03 04 8b be 5f 95 b1 be 65 9b 43 be df 11 2a bf
       -0.27151498 -0.34684274 -0.19102247 -0.6643352
0002e0 bb 35 71 be 60 37 d4 be ab 34 da be 8e 45 c4 be
       -0.23555653 -0.41448498 -0.42618307 -0.38334316
0002f0 c5 c1 d5 be 55 e2 73 be 02 aa ce 3d 00 14 94 be
       -0.41749397 -0.23816808 0.1009102 -0.2892151
000300 3f 84 f8 3b cf 95 3b be 1e 30 5a be ef 88 ed be
       0.0075841243 -0.18318866 -0.21307418 -0.46393535
000310 e5 8f d5 be e3 b5 d3 be 67 ed b0 3d 19 70 c2 be
       -0.41711345 -0.41349706 0.08639031 -0.3797615
000320 d5 0c a6 be e9 5f 24 be 52 c5 15 bf 05 b2 b0 be
       -0.32431665 -0.16052212 -0.5850421 -0.34510818
000330 fd 41 08 bf 4e e0 9b be b8 39 18 be d8 f7 e8 be
       -0.5322569 -0.30444568 -0.14865768 -0.4550159
000340 64 40 7f be 94 7c b6 be a7 61 f5 be 00 3c f1 be
       -0.24926907 -0.3564192 -0.47926065 -0.4711609
000350 2a f5 69 be 52 4f e2 bd ec ff d4 be 28 9d bf be
       -0.22847429 -0.110502854 -0.41601503 -0.37424588
000360 dc 23 c2 3d c3 6b a0 be a9 9a 95 be cf bf 80 3c
       0.09479496 -0.31332216 -0.2921956 0.015716461
000370 0c e0 d4 be bd b5 81 be e5 9b b5 be 74 00 ef be
       -0.41577184 -0.25333968 -0.354705 -0.46680033
000380 73 09 90 3d fd d3 32 3d 27 dc e7 be ee 1f f0 be
       0.07033052 0.0436592 -0.4528515 -0.4689936
000390 8d 68 16 3d 02 2b 43 3c a3 9c 25 be d8 44 10 3d
       0.0367208 0.011912109 -0.16173033 0.035221905
0003a0 37 e0 80 be 78 01 b5 be 94 b5 12 be 17 79 33 be
       -0.25171062 -0.35352683 -0.14327079 -0.17526661
0003b0 3d 02 f3 be 60 0a 03 be e0 2f 70 be d6 bb 47 be
       -0.47462645 -0.12796926 -0.23455763 -0.19505247
0003c0 8d 83 a7 be 69 f5 a3 be 17 ff f1 bc a6 cc af 3b
       -0.32717553 -0.3202317 -0.029540582 0.005364972
0003d0 b9 ea e4 bd 4e 0f 0b bf 24 4d 88 be db 6a cb be
       -0.11177582 -0.5432023 -0.26621354 -0.39729962
0003e0 77 90 fd be 19 54 eb be e4 c0 9c bd c1 d1 10 bf
       -0.4952428 -0.459626 -0.076539785 -0.5657006
0003f0 db 71 9a be 18 32 c5 be a4 6c 9c be b8 70 1b be
       -0.3016499 -0.3851478 -0.30551636 -0.15179718

fc3.weight f4 [128, 256]
000000 25 1c cb bd 23 1b 59 3d 9b 72 8d 3c 1f 1f 66 3d
       -0.099174775 0.053004395 0.017266562 0.056182023
000010 02 0d 4d bd be 50 25 3d 9c f8 36 3d 71 6f 22 3d
       -0.050061233 0.040360205 0.044670686 0.03965706
000020 a2 2e 0a 3d 81 8a c8 3c 21 a9 80 3d 4e 33 69 bc
       0.03373588 0.024480106 0.06282259 -0.014233423
000030 a1 47 1d 3d a4 71 f4 bc b9 a9 71 3d 9a 27 0f 3d
       0.03839839 -0.029839344 0.05899975 0.034949876
000040 23 57 69 bd 5a 70 d7 3d 7e f5 bd bc c2 1d d3 bc
       -0.056967866 0.10519476 -0.023188349 -0.025771026
000050 a1 35 05 3d b0 29 8a bd 73 5e 94 bd 08 b8 3e bd
       0.032521848 -0.067462325 -0.07244577 -0.046562225
000060 74 26 00 3d 64 ac cf 3c de 5e 99 3c d5 8b 06 bc
       0.03128667 0.025350757 0.018721994 -0.0082120495
000070 35 74 b6 3c 70 94 ad 3d 00 0b 1e be b0 07 47 bd
       0.022272209 0.08475578 -0.15433884 -0.048591316
000080 02 46 4f 3d 38 fc a9 3b 67 2c a1 3d 7c d1 36 3d
       0.050603874 0.0051875375 0.07869797 0.044633374
000090 34 ad 83 3d 82 f2 13 3d 09 0f 4e 3c eb 7f 05 3d
       0.0642952 0.036119945 0.012576827 0.032592695
0000a0 88 b1 1a 3d 3b ac af bc 90 c5 9c 3d 57 52 90 bd
       0.037766963 -0.02144443 0.076548696 -0.07046955
0000b0 98 81 a3 bb 36 4d 8a bc 65 70 50 3d f8 30 c4 bc
       -0.004989814 -0.01688252 0.050888438 -0.023949131
0000c0 fb ee 25 3d 2b aa 6f bc b3 45 87 bc 40 df b7 3c
       0.040511113 -0.014627974 -0.016512727 0.022445321
0000d0 ec 5b b2 3d 84 65 85 3c 4a 06 93 bc d4 ba c2 3d
       0.08708939 0.016283758 -0.017947335 0.09508291
0000e0 0e 2d 38 bd 18 49 50 3d 2e 51 fd bd 34 3e 96 bd
       -0.044964842 0.050850958 -0.123689994 -0.07336083
0000f0 ae f5 1e 3e f0 e6 dd 3d be e0 ad 3d 30 e1 92 bd
       0.15523407 0.108350635 0.08490132 -0.07171857
000100 4f 8f 54 bd eb b7 0c be 2f 4f 31 3d e3 90 05 3c
       -0.051894482 -0.13742034 0.043288406 0.0081522195
000110 ce 63 b4 3d ab 85 91 3d 17 0a 04 3e 8e 73 91 3d
       0.08808099 0.07105573 0.12894474 0.071021184
000120 a2 4c 22 3e cd e5 21 3c 58 15 86 3d 4a 85 d2 bc
       0.15849546 0.009881449 0.0654704 -0.025698323
000130 b5 25 5c 3d af 5c 30 bd 89 46 54 bc dc 85 5c 3d
       0.053746898 -0.04305714 -0.01295627 0.053838596
000140 4e 42 36 bd 21 76 91 bd b4 95 68 3d d2 f5 04 bc
       -0.044496827 -0.071026094 0.056783393 -0.008115249
000150 a4 69 12 be 71 d5 d9 bc 8c 15 06 3e 49 f4 69 3c
       -0.14298111 -0.026591035 0.13094157 0.0142794335
000160 ed c3 4a 3e 06 ff 92 3c 1a 39 69 bd ee 4c b6 3d
       0.19801302 0.01794387 -0.056939222 0.08901392
000170 16 43 17 be 2e ff fc bc c0 eb 96 3d 1b d1 86 3d
       -0.14771685 -0.030883398 0.073691845 0.065828525
000180 dd cc c2 3c 73 ef 8f 3d 33 29 f6 bc 77 06 cd bc
       0.023779327 0.07028093 -0.030048942 -0.025027497
000190 65 8c 51 3b f3 ba a1 3c f6 d8 c4 bd 15 37 0e bc
       0.003197455 0.019742465 -0.096116945 -0.008680125
0001a0 bd 4b 51 3d ce f7 9f bc ac df a1 3d fd 89 c9 3b
       0.05109762 -0.019527342 0.0790399 0.0061504827
0001b0 0a 31 fe bd db 24 15 3e cf 72 5f 3d a4 15 f0 3d
       -0.12411697 0.1456484 0.05455285 0.117228776
0001c0 f7 fa f5 bc cc cf dd 3b aa 09 bc 3d 59 35 f6 bd
       -0.030026896 0.006769156 0.09181531 -0.12021894
0001d0 74 3a 16 3d 8e 8c 11 3e a4 d6 0b 3d f8 0b b6 bc
       0.03667684 0.14213774 0.034140244 -0.022222504
0001e0 21 63 c7 3b f6 d2 d2 3c da 8f 1c 3d 61 f1 cb 3d
       0.006084815 0.02573536 0.038223125 0.09958149
0001f0 23 fb 51 3d bf 4d dd 3d 93 42 3b 3a f8 1e b2 bc
       0.051264893 0.108058445 0.0007143404 -0.021743283
000200 e1 2b 66 bc b1 e6 03 3d 73 b0 14 bd bf f3 db bc
       -0.0140485475 0.032202426 -0.036301088 -0.026849626
000210 e4 3e 88 3b 66 94 31 bd 9f 33 47 bc 26 01 c3 bc
       0.004157888 -0.043354414 -0.0121583035 -0.023804259
000220 b9 63 24 3c 85 76 62 3d 3b 74 c1 bc e1 00 f9 3d
       0.010033541 0.05528881 -0.023614993 0.12158371
000230 7b cf 39 3d 86 e1 da bd e2 ff bc 3d da 47 e5 3d
       0.045363884 -0.106875464 0.09228493 0.11195345
000240 b0 95 2a bd 3b 80 36 3d db 19 72 3d 17 33 a9 3d
       -0.04164666 0.044555884 0.05910669 0.08261698
000250 e2 15 dc 3d ee be 70 bd 6c 04 b7 bb 56 70 08 3d
       0.10746361 -0.058775835 -0.005585244 0.033310257
000260 5c 1e 30 3e a5 29 26 3c fb 87 7c bd 3e c1 3d 3e
       0.17199081 0.010141765 -0.06165312 0.18530747
000270 dc 38 4d 3c a2 05 15 bc 20 1c e2 3d 4b 30 9c bd
       0.012525763 -0.009095581 0.11040521 -0.07626399
000280 3c 11 4a be fd f2 25 be f3 10 fd 3d bf 96 90 bd
       -0.19733137 -0.16205974 0.123567484 -0.070600025
000290 0a 36 e9 3d a9 69 6d bc 41 3b e6 3d 69 61 a6 3d
       0.1138726 -0.014490523 0.112417705 0.08124048
0002a0 6c 11 1f bd 9f 32 e3 3d b3 a2 8a 3d 86 f3 99 bd
       -0.038834974 0.110936396 0.06769314 -0.075171515
0002b0 4c ae d2 3d 08 f4 30 3b 3f f8 0b 3e 25 9b 28 bd
       0.10287151 0.0027000923 0.13668917 -0.041163582
0002c0 21 30 80 bd 90 bf 82 3c 11 b9 27 3d 4e 66 0a 3e
       -0.0625918 0.015960485 0.040947977 0.13515589
0002d0 6e 53 81 bd 2e 71 53 bd c8 66 79 3d d1 48 43 3e
       -0.06314741 -0.05162161 0.060889035 0.19070746
0002e0 b8 eb 9f bc da 8d ad 3d e9 ea 04 3e d8 5e 84 3d
       -0.01952158 0.08474322 0.12980236 0.064634025
0002f0 b7 b1 08 3e 72 cd 5c 3d e2 c2 b8 3d 16 a2 84 3d
       0.13349043 0.053906865 0.09021546 0.06476228
000300 15 15 ea bd 76 db 33 3d f2 31 e1 bc d2 f5 df 3c
       -0.11429802 0.043910466 -0.027489636 0.027338896
000310 d4 30 20 bd 4d 5f 16 bd 61 48 91 bd 77 a3 1b 3d
       -0.039109066 -0.03671198 -0.07093883 0.03799769
000320 10 25 53 3b 23 b9 1d bc a2 d9 9d 3d 79 22 2e 3d
       0.0032218136 -0.00962666 0.07707526 0.042513344
000330 97 dc 02 3e 01 cd 8e 3c e4 c6 97 3c c2 a8 65 bc
       0.12779461 0.017431738 0.018527456 -0.014017286
000340 d0 e2 02 3d 13 fd 82 3d 46 23 1a 3e 01 cc 69 bd
       0.031954587 0.06395926 0.15052518 -0.05707932
000350 c1 bf cf bd ae f9 98 bd 0d 2d e1 3c a5 03 ab 3d
       -0.10143996 -0.074694976 0.027487302 0.083503045
000360 13 f7 2a 3d 6f bc 29 bd 08 82 19 3d 8e dc dd bc
       0.041739535 -0.04143947 0.037477523 -0.027082708
000370 f0 a7 50 3b af fe 72 bc 7f d1 4a bc 65 2e 45 bd
       0.003183838 -0.014831229 -0.012379049 -0.04813995
000380 57 81 fc bd 97 dd 0b bd 42 ca cb bc e8 46 d2 3d
       -0.12329357 -0.03414687 -0.024876717 0.102674305
000390 c0 5a 24 3e af a3 1e bd 65 90 f9 3d d7 37 93 3d
       0.16050243 -0.03873032 0.12185744 0.07188385
0003a0 3d a2 21 be 55 09 a2 3c 39 e5 b9 3d 66 e7 e3 3c
       -0.15784545 0.01977984 0.09076924 0.0278203
0003b0 b5 20 c5 bb 19 a3 06 be ef 1f b6 3c da db af 39
       -0.006015862 -0.13148154 0.022232024 0.00033542403
0003c0 f0 5a 2e 3d a1 a7 23 3e 9d 2d 80 3d e4 cf b3 3b
       0.042567194 0.15981914 0.062587 0.005487429
0003d0 6d 59 b5 3c 0d 40 b0 bd 52 aa 44 3d e7 ae 28 bd
       0.022137368 -0.08605967 0.048013993 -0.041182425
0003e0 9f b8 85 3a ee 93 44 3d 9b 67 f7 bb a3 26 aa 3d
       0.0010202116 0.04799264 -0.0075501925 0.083081506
0003f0 2f 4f 18 3e db 18 8b 3d d4 18 6d bc b8 c6 11 3e
       0.14873956 0.0679185 -0.0144712515 0.14235961

fc3.bias f4 [128]
000000 7e f1 9b be ab 1b 86 be 2b 4c 84 bd 90 8e 88 bc
       -0.3045768 -0.26192984 -0.064598404 -0.016669542
000010 9c c3 6c be 6c 02 9e be df 56 90 3d d7 f0 1a bf
       -0.23121494 -0.30861223 0.07047819 -0.6052374
000020 2d ab 9c be b0 72 87 be d1 14 63 be 69 ae 60 be
       -0.30599347 -0.26454687 -0.2217591 -0.21941532
000030 48 e1 4c be c1 2d 0c be 7b c5 1a be 0b 6c 5a be
       -0.20007813 -0.13689329 -0.15114395 -0.21330278
000040 8e 94 f3 be 83 34 2e be c3 c6 59 be 3e ab 30 be
       -0.47574276 -0.17012219 -0.21267228 -0.17252824
000050 bb 54 86 be fa 7b 9c be e9 dd 3e be 70 f5 c1 bc
       -0.2623652 -0.30563337 -0.1863934 -0.023676604
000060 76 b4 84 be 68 00 17 bf 06 bf 90 be 16 18 55 be
       -0.2591893 -0.58984995 -0.2827074 -0.2080997
000070 24 c0 b9 be c4 62 94 be ca ad c8 be 43 03 7d be
       -0.36279404 -0.28981602 -0.3919509 -0.24708275
000080 61 cd 75 be 90 79 b3 3d 0a 87 81 be 40 01 87 be
       -0.24004127 0.087634206 -0.2529834 -0.2636814
000090 4f b2 94 3e 88 41 ab be 3d d6 8a bd 13 46 34 be
       0.2904229 -0.33448434 -0.06779144 -0.17604856
0000a0 02 76 47 be 28 97 d3 be 21 7f 06 be f3 60 0c bf
       -0.1947861 -0.4132626 -0.13134433 -0.5483543
0000b0 67 51 05 3e be 8c 04 bf fa 96 48 be 47 fc b9 bd
       0.13019334 -0.51777256 -0.19588843 -0.09081321
0000c0 9b a0 19 be 23 c4 ac bb dd de 16 bf bb 9f a5 be
       -0.15002672 -0.0052724048 -0.5893381 -0.32348427
0000d0 93 01 1f be 31 c3 50 3e d4 ea db be 11 41 ba be
       -0.15527944 0.2038696 -0.42952597 -0.36377767
0000e0 ac 7b 8d be 4d 7b 97 be 76 df 8c be 49 7e 12 3d
       -0.27633417 -0.2958626 -0.27514237 0.035764966
0000f0 52 4c 97 be 87 ea 5f be 63 24 8a be ba 1d 92 be
       -0.29550415 -0.21866809 -0.26980886 -0.28538305
000100 68 79 3c be c0 2a 62 be 8c d5 d9 be 65 6a 82 be
       -0.18405688 -0.2208662 -0.42545736 -0.25471798
000110 25 4d 0d be 60 66 11 be d3 54 4f be 15 f3 30 bd
       -0.1379896 -0.14199209 -0.20247202 -0.04320057
000120 ee f4 cb be 0f a4 82 be 66 e6 5d be 82 9a a3 be
       -0.39835304 -0.25515792 -0.21669921 -0.31953818
000130 d2 be 4f be 53 39 fd bd d0 ef 01 be 45 ea 79 be
       -0.20287636 -0.12364449 -0.12689137 -0.24405773
000140 1f ef 8c be 76 7b 12 be 41 fc 47 be aa b9 12 bf
       -0.27526185 -0.14304909 -0.19529821 -0.5731455
000150 31 fe 71 be fa aa 69 bf bc 6f c4 be 7e 6c 45 be
       -0.23632123 -0.91276515 -0.38366497 -0.19279668
000160 92 37 7a be 44 f5 03 bf 9a 07 80 be 02 67 8b be
       -0.24435261 -0.5154612 -0.250058 -0.27227026
000170 54 bb 02 bf 0d 2e 6c be 14 54 7d be 5e 13 b8 be
       -0.5106709 -0.23064442 -0.24739105 -0.35952276
000180 5e 08 29 be 6b 59 2f be d3 d7 ce be f7 22 c5 be
       -0.16507098 -0.17123954 -0.40399036 -0.3850324
000190 5e 95 48 be c2 a2 23 be 5c ae 7f be a3 60 5e be
       -0.19588229 -0.15980056 -0.24968857 -0.21716551
0001a0 57 54 99 be 75 d1 6c be 1a c8 1f be e6 6a 5d be
       -0.2994716 -0.23126777 -0.15603676 -0.2162281
0001b0 99 1a 01 3e 2b 3b a3 bd 00 cd 2a be 43 28 e9 be
       0.12607802 -0.0797027 -0.16679764 -0.4553853
0001c0 99 79 86 be 07 07 43 be 61 6b 0e 3d d0 91 45 be
       -0.26264647 -0.1904565 0.034770373 -0.19293904
0001d0 5a 8f 67 be 33 01 77 be 25 fa 73 be c3 15 22 be
       -0.22613278 -0.24121551 -0.23825891 -0.15828614
0001e0 41 0c 82 be ef 99 4c be 9b dc 79 be b1 2e 9e be
       -0.25399974 -0.19980596 -0.2440056 -0.30894998
0001f0 24 9a e8 bd 96 44 82 be 45 d6 7d be 2a 51 9a be
       -0.11357525 -0.25442952 -0.24788769 -0.30140048

fc4.weight f4 [1, 128]
000000 6c 5b 76 3b 70 51 8e 3b 22 4a 95 ba e9 66 23 3b
       0.0037591113 0.004343204 -0.0011389891 0.0024933165
000010 b0 a4 f0 3c b4 70 8d 3b d0 35 60 3a 50 d8 89 bd
       0.029375404 0.004316414 0.00085529406 -0.067307115
000020 11 bb 0c 3c 8b 91 34 bc 85 d0 05 3b d2 be 0a 3b
       0.008589522 -0.011021028 0.0020418477 0.0021170867
000030 1a 1a 8f b9 a4 ae 38 bb d0 8c 61 ba 77 a3 80 3b
       -0.00027294533 -0.0028180266 -0.00086040515 0.0039257365
000040 03 70 26 bd 26 aa 96 b8 b7 76 5a 3b 8c 78 74 3a
       -0.040634166 -7.18425e-05 0.003333492 0.0009325824
000050 5d 9b c1 3c 78 af 17 39 98 96 14 ba 58 1d 14 3c
       0.023633653 0.0001446585 -0.0005668192 0.009040199
000060 82 bd ce 3c 4a f4 92 bd 0b 94 8b 3d 79 f5 2f 3b
       0.025236849 -0.07175501 0.06815346 0.0026849194
000070 ee ec 4a 38 0f 3d 67 3b 7d 12 93 3b 34 29 9d 3a
       4.838121e-05 0.0035284196 0.004488288 0.0011990429
000080 f6 a2 17 bc eb d9 dc 3b b4 1b 4e 3a 39 7b ee 3b
       -0.0092551615 0.006739845 0.00078624045 0.007277873
000090 d3 04 26 3c 8e a4 62 3b 6f 97 1d 3c 78 4e 43 bb
       0.010132986 0.0034582946 0.009618624 -0.002980141
0000a0 f8 af e6 3a f3 c2 13 3a dc a4 92 bb 47 6e bc bd
       0.001760005 0.00056366547 -0.004475219 -0.09200721
0000b0 20 8a 5d 3c ef 45 a9 bc c9 1c 0f bb e2 a7 94 ba
       0.013521701 -0.02066323 -0.0021837226 -0.0011341537
0000c0 87 5d 81 bb 48 20 02 3b 5b 5c 8c bc 0b 5e 2d bc
       -0.003947917 0.0019855667 -0.017133882 -0.010581504
0000d0 c2 b9 cc 3b 86 de d9 bc 57 dd d9 bb 69 38 4c 3b
       0.00624773 -0.026595365 -0.0066487 0.0031161553
0000e0 36 47 2e 3a 41 be 36 bb ad c5 f9 ba b5 12 49 bc
       0.00066481845 -0.0027884396 -0.0019056104 -0.0122725265
0000f0 3a 8e a2 bb 98 ed 3c bc 3e 78 8f bb fa 2b d5 3a
       -0.0049608024 -0.011531256 -0.0043783477 0.0016263716
000100 bf c1 98 bb 4d cd 42 ba 68 9c d3 b9 e6 0d d9 3b
       -0.004661768 -0.0007431105 -0.00040361588 0.0066239713
000110 5a aa b0 ba 5d 6f 7e bb c2 4c ba 38 29 22 20 bd
       -0.0013478503 -0.0038823702 8.8834684e-05 -0.039095078
000120 b8 45 89 3c 72 8d 81 bc f3 7c 87 bc 5a 1d 11 3c
       0.016756877 -0.015814517 -0.016539073 0.008857096
000130 18 ef 28 bc 20 b0 d2 3a 08 4d 77 bb 79 25 ba 3b
       -0.010310911 0.0016074218 -0.0037735123 0.0056807366
000140 13 dd 5c ba 44 e8 71 3a 3e 6e 88 bb 9a 4c 1b bd
       -0.00084252766 0.00092280307 -0.0041635325 -0.03791485
000150 43 c4 e8 3b 67 90 5c 3d 5e 47 e3 3b 59 68 32 3c
       0.0071034743 0.05384865 0.006935998 0.010889136
000160 bd e6 f5 3b e1 b6 bf bb 7f f7 ae 38 8f 73 5a 3a
       0.007504313 -0.0058506583 8.343066e-05 0.00083332596
000170 47 eb 35 bd 79 ee c4 bb b5 7d ef 39 d2 b6 3b bb
       -0.04441383 -0.0060098735 0.0004567929 -0.0028642905
000180 67 c3 3b bc 61 13 1e 3b 10 9d 0c bc a4 90 6b 3b
       -0.011460162 0.0024120437 -0.0085823685 0.0035944367
000190 81 24 7f 3c ff ed 1c 39 7d b5 51 3a b1 8e 14 bc
       0.015572668 0.0001496598 0.0007999761 -0.009067223
0001a0 52 d2 09 3b 06 1c b6 3a 1c 83 7e ba 41 f1 10 3b
       0.0021029902 0.001389385 -0.0009708868 0.0022116455
0001b0 59 c1 16 3c 46 55 97 ba 93 52 0f 3c b0 c1 2d 3c
       0.009201371 -0.0011545799 0.008747715 0.010605261
0001c0 81 26 4d bb ca 07 b0 bb e3 91 c6 3b 31 6d 24 3a
       -0.0031303468 -0.0053720223 0.0060598715 0.00062723743
0001d0 7f d9 90 bc 8e 8b ee 39 92 f6 54 bb 9b 9c 40 ba
       -0.017681835 0.00045498874 -0.00324956 -0.0007347555
0001e0 7a be e0 3b 69 14 f8 3c 65 9b 83 3a 74 38 39 3c
       0.006858644 0.03028317 0.0010040818 0.011304963
0001f0 c3 51 4b 3c e0 a5 85 3d 55 4a ec 3b 7f f8 21 bb
       0.01240963 0.06525779 0.0072110095 -0.0024714766
