checkpoint_critic0.pth (torch_old, 424172 bytes, 7 tensors)

fcs1.weight f4 [256, 24]
0	0x3eb798cd	0.35858765
1	0x3f2ffa6d	0.68741494
2	0x3cdbcbff	0.026830671
3	0xbbd8474c	-0.006600296
4	0x3d720030	0.05908221
5	0xbf0d8ce5	-0.55293113
6	0xbce13596	-0.027491372
7	0xbce6d02e	-0.02817544
8	0x3e4f58aa	0.20248666
9	0x3f18ffec	0.59765506
10	0xbd452fdd	-0.04814135
11	0xbd94afaa	-0.07260068
12	0xbe028f90	-0.12750077
13	0xbf0f6ebc	-0.5602834
14	0xbd43617b	-0.047700386
15	0xbd94d4ee	-0.072671756
16	0x3e0ac441	0.13551427
17	0x3efd3d1a	0.4946068
18	0x3c627eac	0.013824146
19	0xbd6f7707	-0.058463123
20	0xbe325c43	-0.17418008
21	0xbf948b18	-1.1604948
22	0x3cbf75b1	0.02337155
23	0xbd86394f	-0.065538995
24	0xbe5cb9e9	-0.21555294
25	0xbd9df0a4	-0.07711914
26	0x3c2a0831	0.01037793
27	0xbd9ef0ed	-0.07760797
28	0xbf23354b	-0.63753194
29	0xbde39b7e	-0.11113642
30	0xbb5d6caf	-0.0033786704
31	0xbdcb3bd7	-0.09923523
32	0xbd39be38	-0.045347422
33	0x3a4037e5	0.00073325477
34	0xbcfc6846	-0.03081144
35	0xbe50bc4e	-0.20384333
36	0xbddb4ff3	-0.107086085
37	0x3e84b7b5	0.25921407
38	0xbc1c2123	-0.009529385
39	0xbe38858c	-0.18019694
40	0x3ddc0d4a	0.10744722
41	0xbdba4920	-0.09095979
42	0x3b9b4f3d	0.0047396705
43	0xbe7ca3bc	-0.24671835
44	0x3f3a1884	0.7269366
45	0x3f2d825d	0.67777044
46	0x3cf4c70f	0.029880075
47	0xbe9b6740	-0.3035221
48	0x3d13edfb	0.036115628
49	0x3dbb0fa4	0.091338426
50	0xbbf2c047	-0.007408175
51	0xbdaaf3cd	-0.083472826
52	0x3e58fe4b	0.21190755
53	0xbd1d8766	-0.038459204
54	0xbd186917	-0.037209596
55	0xbe1e3f0e	-0.15453741
56	0x3e4a8d58	0.19780481
57	0x3da129f0	0.07869327
58	0x3d1d3309	0.03837875
59	0x3d74b18f	0.059739646
60	0x3d5b608d	0.053558875
61	0xbe084c70	-0.13310409
62	0xbd7e68b1	-0.06211156
63	0x3d7912ba	0.060808875
64	0x3ef05e2c	0.46946847
65	0x3d09d467	0.03364983
66	0xbd6b6d03	-0.05747701
67	0xbd9ccc18	-0.07656115
68	0xbe9f604f	-0.31128165
69	0xbdb15b1d	-0.086599566
70	0x3d3001a9	0.042970333
71	0xbcdfdfc8	-0.027328387
72	0x3d8fdad7	0.07024162
73	0x3e34b306	0.17646417
74	0xbd0a48d3	-0.033760857
75	0x3d2697e0	0.040672183
76	0x3e3f472e	0.18679497
77	0x3cb68ae7	0.02228303
78	0x3cb7c982	0.022434954
79	0x3dc1f6fe	0.09470938
80	0x3e5640ab	0.20923106
81	0x3e272a34	0.16324693
82	0x3ce8a3d7	0.028398437
83	0xbcb2e40f	-0.021837262
84	0x3d7179e0	0.05895412
85	0xbe00cecd	-0.12578888
86	0xbd355ebb	-0.044279795
87	0xbcde5b18	-0.027143046
88	0x3e889b05	0.2668077
89	0x3e711e3c	0.2354669
90	0x3c62017d	0.0137943
91	0x3dcae618	0.09907168
92	0xbea38cd7	-0.3194339
93	0xbe97e836	-0.2966935
94	0xbba3cd33	-0.004998827
95	0x3daac623	0.08338573
96	0x3de577af	0.112044685
97	0x3d9176fd	0.07102773
98	0x3d1d7825	0.038444657
99	0x3dba985d	0.09111092
100	0x3e919c20	0.28439426
101	0xbe047ed9	-0.12939014
102	0xbcf01c83	-0.02931047
103	0x3daee29f	0.08539318
104	0x3e803782	0.2504235
105	0xbc012af8	-0.00788378
106	0x3c9295ca	0.01789369
107	0x3c988eb9	0.018622743
108	0xbb8bfc4b	-0.004272019
109	0xbd7754d3	-0.06038363
110	0xbd76727c	-0.060167775
111	0xbd42c3e3	-0.047550093
112	0x3ed3f8ad	0.41400662
113	0xbda860fb	-0.082216226
114	0x3cf62093	0.03004483
115	0x3b8e14af	0.004335962
116	0xbea3d6cc	-0.31999815
117	0xbd5900bd	-0.05297922
118	0xbd751dae	-0.059842758
119	0xbab8c5e1	-0.0014097058
120	0x3ebd9a19	0.3703163
121	0x3d9bab30	0.07601011
122	0xbce3a760	-0.027789772
123	0x3d9c2336	0.076239035
124	0xbe6c291b	-0.23062555
125	0x3d17dba0	0.037074685
126	0x3bc942ba	0.0061419876
127	0x3c8a2892	0.016865049
128	0x3f0282c1	0.50980765
129	0xbcce385f	-0.025173364
130	0x3d4cdefc	0.050017342
131	0xbc09d2dd	-0.00841209
132	0xbefff23c	-0.49989498
133	0x3e143ab0	0.14475513
134	0xbc9f58e5	-0.019451568
135	0xbd82d5ee	-0.0638846
136	0x3f2ac0e3	0.6670057
137	0xbd844834	-0.06459084
138	0x3d39ea52	0.04538948
139	0x3b153f4b	0.0022773321
140	0xbf76a9e1	-0.96352965
141	0xbef84c9a	-0.48495942
142	0x3d15c39d	0.036563504
143	0x3d0c1483	0.03419925
144	0x3dbf90ae	0.09353767
145	0xbf3e9469	-0.74445206
146	0xbbf83d70	-0.0075756833
147	0x3e5e1b59	0.2169012
148	0x3ba06ba6	0.004895645
149	0xbeee3031	-0.46521142
150	0x3d8f2cf2	0.069909945
151	0x3e59bf47	0.21264373
152	0x3e3e8bff	0.18608092
153	0xbf26a367	-0.6509308
154	0xbd475ccd	-0.048672486
155	0x3e02d8f4	0.12778074
156	0x3dbab5f9	0.0911674
157	0xbef4abfd	-0.47787467
158	0xbda8c1c3	-0.08240082
159	0x3df305a7	0.118663125
160	0x3e843060	0.25818157
161	0xbf3d5736	-0.739612
162	0x3d38f84c	0.04515867
163	0xbec079b0	-0.3759284
164	0x3e8057b3	0.2506691
165	0xbe65dad7	-0.22446762
166	0xbd396862	-0.045265563
167	0xbee211e4	-0.44154274
168	0x3e2f67d7	0.17129456
169	0x3f2f7d81	0.6855088
170	0x3c83527b	0.01603054
171	0xbdc0be02	-0.09411241
172	0xbdfa01a0	-0.12207341
173	0xbf44498c	-0.76674724
174	0xbd3f6c2d	-0.046734024
175	0xbdb10a3a	-0.08644529
176	0x3e3758e9	0.1790501
177	0x3ee9e0b0	0.45679235
178	0x3c87c4dd	0.016573364
179	0xbc3b8ce4	-0.011447165
180	0xbe972cdc	-0.29526412
181	0xbf05322d	-0.5202969
182	0x3cce7cc0	0.02520597
183	0xbca6c7d4	-0.020358957
184	0x3e5a0539	0.21291055
185	0x3ee50251	0.4472833
186	0x3c663c2a	0.01405243
187	0xbd9cfe35	-0.07665674
188	0xbf1cd215	-0.6125806
189	0xbf2e6b25	-0.6813224
190	0x3cd434e0	0.025904119
191	0xbe1f4018	-0.15551794
192	0x3e296199	0.16541137
193	0xbc88c868	-0.016697124
194	0xbc9cefc8	-0.019157305
195	0x3d0017d7	0.031272735
196	0xbd271ebb	-0.04080079
197	0xbe9fe608	-0.31230187
198	0xbc70e51f	-0.014703064
199	0x3dc8940e	0.09793864
200	0x3e35e899	0.1776451
201	0xbd070437	-0.032963004
202	0x3d054eb8	0.032545775
203	0xbdb463c5	-0.08808092
204	0xbe0077b0	-0.12545657
205	0xbed2be94	-0.41161025
206	0xbcab45c4	-0.02090729
207	0xbdce9249	-0.100864954
208	0x3e29c545	0.16579159
209	0x3d4c3e0e	0.049863867
210	0xbb5b8b4e	-0.003349978
211	0x3e0414c1	0.12898542
212	0x3cea7da1	0.028624358
213	0xbf22a5e4	-0.6353438
214	0xbc1789e4	-0.009249184
215	0x3d259632	0.04042644
216	0x3e956b5f	0.2918348
217	0xbdfd4397	-0.12366407
218	0xbdcfed42	-0.10152675
219	0x3d0f15bb	0.034932833
220	0x3f16c600	0.58895874
221	0xbec2083a	-0.378969
222	0xbc142606	-0.009042269
223	0x3de25a98	0.11052436
224	0x3e97971f	0.29607484
225	0xbe117f60	-0.14208746
226	0x3db3a0d3	0.08770909
227	0x3e170323	0.1474729
228	0x3f5b5bfc	0.8568723
229	0xbdab0120	-0.08349824
230	0xbc0a8d98	-0.00845661
231	0x3dbff5ba	0.093730405
232	0x3e5f659e	0.21816108
233	0x3d9e3eb8	0.077268064
234	0xbb16ed8c	-0.0023029773
235	0x3f04dd72	0.519004
236	0x3f2bd7d3	0.67126197
237	0x3d3300db	0.043701988
238	0xbd992adf	-0.0747888
239	0x3f08651e	0.5327929
240	0x3d8b537b	0.06803032
241	0x3f9745ed	1.1818215
242	0xbce2e85d	-0.02769869
243	0x3d662db3	0.056195926
244	0xbe230bc3	-0.15922455
245	0x3e560b48	0.20902741
246	0x3c976301	0.018479826
247	0x3d2250dd	0.0396279
248	0x3e4df9c0	0.20114803
249	0x3fa01058	1.2504988
250	0xbd05cb6f	-0.032664713
251	0x3a41d4b8	0.0007394063
252	0xbe5c14e8	-0.2149235
253	0xbdcf9805	-0.10136417
254	0xb73a3e20	-1.11009285e-05
255	0x3cca6b98	0.024709508

fcs1.bias f4 [256]
0	0xbea7cfea	-0.32775813
1	0xbdb73a7b	-0.08946701
2	0xbed6a5e8	-0.4192345
3	0xbf1c8c1b	-0.61151284
4	0xbec66f49	-0.3875678
5	0xbf1fc996	-0.6241697
6	0xbebe4e01	-0.37168887
7	0xbf5da206	-0.86575353
8	0xbf1bf721	-0.60923964
9	0xbcfa3b40	-0.03054583
10	0xbecf8064	-0.40527642
11	0xbee27beb	-0.44235167
12	0xbeebaabb	-0.46028695
13	0xbeb0540b	-0.3443912
14	0xbdbe6f7e	-0.09298609
15	0x3ee7b37a	0.45254117
16	0x3e363b78	0.17796123
17	0xbf0e1f3e	-0.5551642
18	0xbde00fd6	-0.109405205
19	0xbf1dfaa7	-0.6171059
20	0xbf0ba51a	-0.545488
21	0xbea2c036	-0.3178727
22	0x3e8e6f2f	0.278192
23	0xbf094c11	-0.53631693
24	0xbe0e6f12	-0.13909557
25	0xbee50510	-0.44730425
26	0xbedd0b9b	-0.43172917
27	0xbe42d9fb	-0.19028465
28	0xbe532aa4	-0.20621735
29	0xbe698cbc	-0.22807592
30	0xbf07c3c9	-0.5303312
31	0xbf28ae3f	-0.6589088
32	0xbce5790e	-0.028011825
33	0x3d029b8e	0.03188663
34	0xbf2768a3	-0.6539404
35	0xbf536999	-0.82583004
36	0xbf4d7a05	-0.8026431
37	0xbe276594	-0.16347343
38	0xbe379f9f	-0.17931984
39	0xbf1fabd1	-0.62371546
40	0xbe81f44b	-0.25381693
41	0xbf0c57b9	-0.54821354
42	0xbf14e177	-0.5815653
43	0xbefa5f73	-0.48900947
44	0xbf1e2f78	-0.6179118
45	0xbf3c5aa1	-0.7357579
46	0xbee62592	-0.4495054
47	0xbe2b3ba9	-0.16721977
48	0xbe8bf669	-0.27336434
49	0xbed6a354	-0.41921484
50	0xbef6d4a2	-0.482091
51	0xbe883aef	-0.26607463
52	0xbf049ccf	-0.5180177
53	0xbf13fd7a	-0.5780865
54	0xbea4c7d9	-0.32183722
55	0xbe6a8723	-0.22903113
56	0xbec89137	-0.3917329
57	0xbf22dcc3	-0.63618106
58	0xbf07b755	-0.5301412
59	0xbeed3465	-0.46329036
60	0xbf30ec9f	-0.69111055
61	0xbf1126b7	-0.566997
62	0xbf7bcdc3	-0.9836084
63	0xbf1eccb6	-0.62031114
64	0x3f0eb46c	0.5574405
65	0xbf482ee3	-0.78196543
66	0xbf4c2b20	-0.79753304
67	0x3e13f999	0.14450683
68	0xbef2f514	-0.47452605
69	0xbeb397ea	-0.3507684
70	0xbf4fb29d	-0.8113192
71	0xbf22649a	-0.63434756
72	0xbe3c022c	-0.18360204
73	0xbf1cb331	-0.61210924
74	0xbf3854b5	-0.7200425
75	0xbf0bd2fe	-0.54618824
76	0xbd4e6e31	-0.050398055
77	0x3bf081f1	0.007339709
78	0xbf1b3de4	-0.6064131
79	0xbf13f1ae	-0.5779065
80	0xbf078991	-0.52944285
81	0xbee8837e	-0.4541282
82	0xbf102e7a	-0.5632092
83	0xbe00a7f7	-0.12564074
84	0x3df9e3f2	0.1220168
85	0x3cae15ca	0.021250624
86	0xbef76653	-0.48320255
87	0xbd36edc7	-0.044660356
88	0x3f46a45f	0.7759456
89	0xbf08a9d3	-0.5338413
90	0x3e192c8d	0.14958401
91	0xbea780ca	-0.32715446
92	0xbf3cd582	-0.7376329
93	0xbec6eb4e	-0.38851398
94	0x3ee74072	0.45166355
95	0xbf2abdc3	-0.66695803
96	0xbf0154d8	-0.50520086
97	0xbf2929ee	-0.66079605
98	0xbed17615	-0.40910402
99	0x3e0eb536	0.13936314
100	0xbf060201	-0.5234681
101	0xbf0fd325	-0.56181556
102	0xbf4fb61c	-0.8113725
103	0xbe0ba0b6	-0.13635525
104	0xbf01d01e	-0.50708187
105	0xbec908db	-0.3926457
106	0xbf11f4bd	-0.57014066
107	0xbeb1db0e	-0.34737438
108	0xbf1a922e	-0.603793
109	0xbf15ddd2	-0.58541596
110	0x3ddac575	0.10682193
111	0xbf13e338	-0.57768583
112	0xbe1402a0	-0.14454126
113	0xbf0e03a0	-0.5547428
114	0xbd01e2f3	-0.031710576
115	0xbe5fe5fa	-0.21865073
116	0xbf044ddc	-0.51681304
117	0xbeca2c68	-0.39487004
118	0xbf204b19	-0.6261459
119	0xbed9c9d4	-0.42536795
120	0xbf1ea733	-0.61973876
121	0xbdb9ef9c	-0.09078905
122	0xbd8f76c9	-0.07005078
123	0x3e2f24d6	0.17103896
124	0xbf1100f1	-0.5664206
125	0xbef49c75	-0.47775617
126	0xbee60416	-0.44924992
127	0xbf18caa0	-0.5968418
128	0x3d713d21	0.058896188
129	0x3d2f228e	0.042757563
130	0x3d1fcbf1	0.039012853
131	0xbf63dac5	-0.8900569
132	0xbe8652d6	-0.26235074
133	0xbf2490fd	-0.64283735
134	0x3d43d05c	0.04780613
135	0xbeb8c643	-0.36088762
136	0xbf08735f	-0.5330104
137	0xbd37a9c4	-0.044839635
138	0xbf059fe7	-0.52197117
139	0xbecba837	-0.39776775
140	0xbe0431eb	-0.12909667
141	0xbeae0fad	-0.33996335
142	0xbe9b68e9	-0.30353478
143	0xbe91c10a	-0.2846759
144	0xbe1ba251	-0.15198638
145	0xbe6bcbeb	-0.23027007
146	0xbf1694b4	-0.5882065
147	0xbe862e31	-0.26207116
148	0x3dc16c5b	0.09444495
149	0xbef60b7d	-0.4805564
150	0x3cc0675a	0.023486782
151	0xbf1c6f58	-0.611074
152	0xbe30e544	-0.17274958
153	0xbf31bb6d	-0.69426614
154	0xbea9b90b	-0.3314899
155	0xbf0e11f7	-0.5549616
156	0xbecfe05d	-0.40600863
157	0xbe583a02	-0.21115878
158	0xbf56fc9e	-0.83979213
159	0xbf95417a	-1.1660607
160	0xbf0af1e7	-0.54275364
161	0x3ea1f2e3	0.3163062
162	0xbf3dd45b	-0.74152154
163	0xbf372e57	-0.71555084
164	0xbf5fe989	-0.8746572
165	0xbdbd4988	-0.092425406
166	0xbf092db4	-0.5358536
167	0xbe40a174	-0.1881159
168	0xbf35117a	-0.7072979
169	0xbf2f9d88	-0.6859975
170	0xbd9e36d8	-0.07725304
171	0xbd447872	-0.047966428
172	0xbef6a94d	-0.4817604
173	0xbf440c29	-0.76581055
174	0xbf07a9b0	-0.529933
175	0x3e8ddf8a	0.2770961
176	0x3e679518	0.22615469
177	0xbf2d3109	-0.67652947
178	0xbf24d542	-0.64387906
179	0xbd592b76	-0.053019963
180	0xbeddc9b6	-0.43317956
181	0x3aec3f0a	0.0018024158
182	0x3e1230b1	0.14276387
183	0xbee3025b	-0.44337735
184	0xbe2106fc	-0.1572532
185	0xbed07e6f	-0.4072146
186	0xbee004d7	-0.43753693
187	0xbe6b18ca	-0.22958675
188	0xbe879d51	-0.2648721
189	0x3e5f8147	0.21826659
190	0xbf0ea1b0	-0.55715466
191	0xbec1d02a	-0.3785413
192	0x3d26ff13	0.0407706
193	0xbeb6e7ef	-0.35723826
194	0xbec1f9ca	-0.37885886
195	0xbe11b127	-0.14227735
196	0xbe922a08	-0.28547692
197	0xbf11f12f	-0.5700864
198	0xbf14baea	-0.5809771
199	0xbec47c82	-0.38376242
200	0xbdcb99c8	-0.09941441
201	0xbefc0c18	-0.49227977
202	0x3e513ff8	0.20434558
203	0xbf3fdfc7	-0.7495083
204	0xbf5d7e07	-0.8652043
205	0x3e8ecc4a	0.27890235
206	0xbe8f8534	-0.28031313
207	0xbf1b9e0d	-0.6078804
208	0xbe4ec08f	-0.20190643
209	0xbeda0349	-0.4258063
210	0xbf1c9896	-0.6117033
211	0xbec43391	-0.38320592
212	0xbef689c1	-0.48151973
213	0xbeb13509	-0.34610775
214	0xbf1e6b7e	-0.6188277
215	0x3d087067	0.03331032
216	0xbee74690	-0.45171022
217	0xbec8db09	-0.3922961
218	0x3c957dfc	0.01824855
219	0xbeda4b65	-0.42635646
220	0xbe2c266e	-0.16811535
221	0xbf118f83	-0.56859607
222	0xbe5e2c8f	-0.21696685
223	0xbe9b3b60	-0.30318737
224	0xbf128bd0	-0.57244587
225	0xbedc8df7	-0.4307706
226	0xbed1f212	-0.41004997
227	0xbf3b83b0	-0.73247814
228	0xbf1a418e	-0.6025628
229	0x3e9106df	0.28325555
230	0xbe804742	-0.25054365
231	0xbf1e32f7	-0.61796516
232	0xbf037d03	-0.5136263
233	0xbef30cf6	-0.47470826
234	0x3e28f8c6	0.1650115
235	0xbf2092d9	-0.6272407
236	0xbf19b293	-0.6003811
237	0xbf22e675	-0.636329
238	0xbc53eef1	-0.012935386
239	0x3d9b3a67	0.07579499
240	0xbecda260	-0.40162945
241	0xbea9c058	-0.3315456
242	0xbdc4e87d	-0.09614656
243	0xbed71cd5	-0.42014185
244	0xbecee586	-0.40409487
245	0xbf055f61	-0.5209866
246	0xbe9cc997	-0.3062255
247	0xbf1d27e2	-0.6138898
248	0xbe1fabfb	-0.15592949
249	0xbf022222	-0.5083333
250	0xbef3e37d	-0.47634497
251	0xbf2215d9	-0.63314587
252	0xbf2eba61	-0.6825314
253	0xbef390cc	-0.4757141
254	0xbeca81cb	-0.3955215
255	0xbe8002ff	-0.25002286

fc2.weight f4 [256, 258]
0	0x3d032f6a	0.03202764
1	0xbdd45882	-0.10368444
2	0xbdfaf3cc	-0.12253532
3	0xbcf112d5	-0.029427925
4	0x3e045337	0.12922369
5	0x3ee8bfd2	0.45458847
6	0x3df43db0	0.119258285
7	0x3d9e713a	0.0773644
8	0x3d88e3c3	0.06684067
9	0x3d932639	0.07185025
10	0xbe13a439	-0.14418115
11	0x3d0ae006	0.03390505
12	0xbd276944	-0.040871873
13	0x3e3effb7	0.18652235
14	0x3e43d8cb	0.19125669
15	0xbeee2c9c	-0.4651841
16	0x3e84c497	0.25931236
17	0xbc80afc7	-0.015708817
18	0xbdfdcc63	-0.12392499
19	0xbe275226	-0.16339931
20	0xbdbb262a	-0.091381386
21	0x3e9ee2df	0.31032464
22	0xbe3aeeed	-0.18255205
23	0xbdc6fd24	-0.097162515
24	0x3e972e19	0.29527357
25	0xbd49ebcf	-0.04929715
26	0xbda3a922	-0.07991244
27	0x3deb4a61	0.11488796
28	0xbda8e2f1	-0.08246411
29	0x3d71e67b	0.059057694
30	0x3c9ae2aa	0.01890691
31	0x3df785d0	0.120860696
32	0xbe489633	-0.19588546
33	0x3e06eb0a	0.13175598
34	0x3e08997a	0.13339797
35	0x3e2aec84	0.16691786
36	0xbc74df22	-0.014945777
37	0xbe800e6a	-0.25010997
38	0xbe4cd5e7	-0.20003472
39	0x3cfb1e60	0.030654132
40	0xbd80cbba	-0.06288858
41	0x3c79bd0c	0.015242826
42	0x3e30e795	0.17275842
43	0xbdd502b7	-0.104009084
44	0x3d1ee7e7	0.038795378
45	0xbd1e81c2	-0.038697965
46	0x3e5c5611	0.21517207
47	0x3c3aa80f	0.011392607
48	0x3de272b1	0.11057032
49	0x3df27ac7	0.11839824
50	0x3d3c3b2a	0.04595486
51	0x3e53b063	0.20672755
52	0x3d1a6d07	0.037701633
53	0xbcfdc812	-0.03097919
54	0xbe095a76	-0.13413414
55	0x3c943bf1	0.018094989
56	0x3d4f049c	0.050541505
57	0xbd2113f9	-0.039325688
58	0x3d0e9988	0.034814388
59	0x3e3f617e	0.18689534
60	0x3d4181e5	0.047243018
61	0x3e22fe00	0.15917206
62	0x3e03acf6	0.12858948
63	0xbe21d75e	-0.15804812
64	0xbc4a68c4	-0.01235408
65	0x3d3c64a9	0.045994435
66	0x3dbf8e8b	0.0935336
67	0xbdde2d09	-0.108484335
68	0xbdd0be4c	-0.10192546
69	0xbe9b7b6f	-0.3036761
70	0xbe1272f0	-0.14301658
71	0x3c515466	0.01277647
72	0xbe6b92ef	-0.2300527
73	0x3b80642f	0.003918193
74	0x3d6062e1	0.0547818
75	0x3d425271	0.047441904
76	0x3c93450a	0.017977256
77	0x3d80bb65	0.06285743
78	0x3e150c8c	0.14555568
79	0x3d1f6004	0.038909927
80	0x3d2c65df	0.04208934
81	0x3d260f1a	0.040541746
82	0x3dc13e9d	0.09435771
83	0x3bd87b9a	0.0066065313
84	0x3d5386d6	0.05164226
85	0xbcd5d338	-0.026101694
86	0x3da6df3a	0.08148046
87	0xbcceaba3	-0.025228327
88	0xbe6a9710	-0.22909188
89	0xbcf9c26e	-0.03048822
90	0xbe0ee0c6	-0.13952932
91	0x3cbf9fe6	0.023391675
92	0x3ca52b6f	0.020162312
93	0x3e0139d7	0.1261972
94	0x3e733c52	0.23753479
95	0x3d964492	0.073372975
96	0x3dd9e1eb	0.106387936
97	0xbd51e5f5	-0.051244695
98	0x3c5d2b2e	0.013499064
99	0xbe750854	-0.23928958
100	0xbdaf8e7d	-0.08572099
101	0xbd2abd53	-0.04168446
102	0x3dbb86de	0.09156583
103	0xbd0d1a14	-0.0344487
104	0xbdac6ce2	-0.08419205
105	0x3cd7d0c0	0.026344657
106	0xbe2bded7	-0.16784225
107	0xbd3ec822	-0.04657758
108	0x3d720397	0.059085455
109	0x3d07c1c2	0.033143766
110	0xbd40da6a	-0.047083296
111	0x3d41a452	0.04727585
112	0xbed75823	-0.4205943
113	0x3cd8011d	0.026367718
114	0x3935efcf	0.00017350841
115	0xbdb9e0b1	-0.090760596
116	0x3c93ce9e	0.018042859
117	0x3da2c173	0.07947054
118	0x3c69ea3c	0.014277037
119	0x3d5f02e2	0.05444611
120	0x3e201ff5	0.1563719
121	0xbecada91	-0.39619878
122	0x3e7f8645	0.24953564
123	0xbce8cf22	-0.028419081
124	0x3c2cf367	0.0105560785
125	0x3d5ce6e1	0.05393112
126	0xbeb125fa	-0.34599286
127	0xbc58fcbe	-0.013243852
128	0x3d059b83	0.03261901
129	0xbe316cb5	-0.17326625
130	0xbe88c4e2	-0.2671271
131	0x3dd25a43	0.10271122
132	0xbd2aa847	-0.041664388
133	0xbc92747e	-0.017877813
134	0x3dbaa92e	0.091143
135	0x3d7ffaec	0.062495157
136	0xbf372a58	-0.71548986
137	0xbda506a5	-0.08057908
138	0xbe038360	-0.12843084
139	0x3d295b68	0.041346937
140	0xbd540cd4	-0.051770046
141	0x3d2c0ef2	0.04200644
142	0x3da82987	0.08211046
143	0xbe6ad840	-0.22934055
144	0xbdf6bed0	-0.12048113
145	0x3d81fd69	0.06347162
146	0xbdbb2a43	-0.0913892
147	0xbd5ff715	-0.054678995
148	0xbecb9a31	-0.39766076
149	0xbdb94805	-0.0904694
150	0x3d9f0efe	0.077665314
151	0x3e03e28b	0.12879388
152	0xbe0f33bb	-0.13984577
153	0xbdd88454	-0.105721146
154	0x3dea3a3a	0.11436887
155	0x3da6edfe	0.08150862
156	0xbebc71fb	-0.3680571
157	0x3d3856c2	0.045004614
158	0xbe2cada8	-0.1686312
159	0xbc844f8b	-0.01615121
160	0x3d4730c5	0.048630495
161	0xbde3bf8d	-0.1112052
162	0xbe927ecc	-0.28612363
163	0xbdb0749a	-0.0861599
164	0x3d1bf5dd	0.03807627
165	0xbde76838	-0.11299175
166	0xbd750f1a	-0.059828855
167	0x3c7ffbbf	0.015623986
168	0xbecf88c1	-0.40534022
169	0x3d741b90	0.0595966
170	0xbdd3364f	-0.10313093
171	0xbe46d47f	-0.19416998
172	0x3d941b37	0.07231753
173	0xbca06a83	-0.019582039
174	0x3cf7ba97	0.03024034
175	0xbb399151	-0.0028315375
176	0xbe3904b9	-0.18068208
177	0x3e0f1109	0.13971342
178	0x3d763352	0.060107537
179	0x3e02a8c6	0.12759694
180	0xbd1fc358	-0.039004654
181	0xbdb6f18e	-0.08932792
182	0xba16ea98	-0.0005757003
183	0x3e0d8c05	0.13822944
184	0xbcfe057e	-0.031008478
185	0x3c98969c	0.018626504
186	0xbc518584	-0.01278818
187	0xbc42a3cc	-0.0118798725
188	0xbe1b9f5e	-0.15197513
189	0xbdab78ed	-0.08372674
190	0x3d987b39	0.07445378
191	0xbc8c6c2a	-0.01714142
192	0x3dae9fc0	0.08526564
193	0xbe27991b	-0.16366999
194	0xbd61cc1c	-0.055126294
195	0xbd9fe729	-0.07807762
196	0xbe037623	-0.12838034
197	0xbdb60b93	-0.08888926
198	0xbda01a42	-0.07817508
199	0x39c93f54	0.0003838489
200	0x3e35e2c8	0.17762291
201	0x3e976b64	0.2957412
202	0x3e10e55a	0.1414999
203	0xbe21567b	-0.15755646
204	0x3e1e421b	0.15454905
205	0xbb2cff36	-0.0026397235
206	0x3ec052c2	0.3756314
207	0x3da52c78	0.08065122
208	0x3e287bc4	0.16453463
209	0xbdc6d6c8	-0.09708935
210	0xbe991c7c	-0.29904544
211	0xbdbae75b	-0.09126159
212	0xbde24502	-0.110483184
213	0xbc2cdfbc	-0.010551389
214	0x3c2c4259	0.010513865
215	0x3e81c64f	0.2534661
216	0xbe687beb	-0.22703521
217	0x3de92ab7	0.113851
218	0xbdb25b84	-0.087088615
219	0xbd436e69	-0.047712717
220	0x3de0a24a	0.10968454
221	0x3da20191	0.07910455
222	0x3d3f4928	0.046700627
223	0x3d8fbf19	0.07018871
224	0xbde5632a	-0.11200555
225	0xbdedab4c	-0.11604938
226	0xbc0a9f5a	-0.008460844
227	0x3d34344e	0.043995194
228	0x3dafbc48	0.08580834
229	0xbe633bf2	-0.22190836
230	0xbe6f17f6	-0.23348984
231	0xbcab626c	-0.020920955
232	0xbd809d0b	-0.062799536
233	0x3dc37494	0.0954372
234	0x3e8999d9	0.2687519
235	0xbe2d6a36	-0.16935048
236	0x3d57d97c	0.052697644
237	0x3e0f6e69	0.14006962
238	0xbd4f0c84	-0.050549045
239	0x3e65681e	0.22402999
240	0xbdf62184	-0.12018111
241	0xbdc5fcea	-0.0966738
242	0xbd8fb82f	-0.07017552
243	0xbd9c30d3	-0.076265
244	0x3e00bd13	0.12572126
245	0x3df79f04	0.12090877
246	0xbd81ea7f	-0.06343555
247	0x3c157b90	0.009123698
248	0xbe867b9d	-0.26266184
249	0x3dad08e5	0.08448962
250	0xbe0b6e14	-0.1361621
251	0x3e8674e4	0.26261055
252	0x3df73f97	0.12072676
253	0x3dbc1527	0.09183722
254	0xbe0e61ca	-0.13904491
255	0x3e8ccfab	0.27502188

fc2.bias f4 [256]
0	0xbe4bc736	-0.19900212
1	0xbea07543	-0.31339464
2	0xbe598b30	-0.21244502
3	0xbd64182c	-0.055687115
4	0xbe3c6c9f	-0.1840081
5	0xbf0bef0c	-0.5466163
6	0xbf1ee0a1	-0.62061507
7	0xbf0b463e	-0.54404056
8	0xbf55acdf	-0.83466905
9	0xbeb57e4e	-0.35447925
10	0xbf395669	-0.72397476
11	0xbe4491f6	-0.19196305
12	0xbe0e9f3b	-0.13927929
13	0xbe470bf8	-0.1943816
14	0xbe1bf277	-0.15229212
15	0xbf659e2d	-0.8969448
16	0xbeabc3c6	-0.335478
17	0xbeaee777	-0.3416097
18	0xbefaae2e	-0.48961014
19	0xbee1d775	-0.44109693
20	0xbed400e4	-0.4140693
21	0xbde6ffc4	-0.11279252
22	0xbde21be1	-0.11040474
23	0xbe139a30	-0.14414287
24	0xbf11b7f6	-0.5692133
25	0xbee3eaba	-0.4451502
26	0xbf0a52f8	-0.5403285
27	0xbef2f1e3	-0.4745017
28	0xbe3a6dc3	-0.18205933
29	0xbe75db91	-0.24009539
30	0xbe0eef8a	-0.13958564
31	0xbf2d0977	-0.6759257
32	0xbdb30f5b	-0.08743163
33	0xbe8055f3	-0.25065574
34	0xbd1abfa4	-0.03778042
35	0xbe993d66	-0.29929656
36	0xbe9437bd	-0.28948775
37	0xbd87edaf	-0.066371314
38	0xbe869201	-0.26283267
39	0xbebc7901	-0.3681107
40	0xbf0c57f8	-0.5482173
41	0xbde74853	-0.112930916
42	0x3e28d4f8	0.16487491
43	0xbd6fd62b	-0.058553856
44	0xbd0e9596	-0.034810625
45	0xbea6d9be	-0.32588
46	0xbeeadc31	-0.45871118
47	0xbe8afac1	-0.27144435
48	0xbf1ec76f	-0.6202306
49	0x3fafdd51	1.3739415
50	0xbf40b365	-0.75273734
51	0x3ec604af	0.38675448
52	0xbf2affe1	-0.6679669
53	0xbee867c2	-0.4539166
54	0x3e953024	0.2913829
55	0xbf04609c	-0.51709914
56	0xbee566a8	-0.44804883
57	0xbd255968	-0.040368468
58	0xbecc1729	-0.3986142
59	0xbdda9413	-0.10672774
60	0xbe6821ca	-0.2266914
61	0xbe2f970b	-0.17147462
62	0xbe93a084	-0.288334
63	0xbeed69ee	-0.4636988
64	0xbedd7dda	-0.4326008
65	0xbeb76a7f	-0.35823438
66	0xbf36cd86	-0.71407354
67	0xbe0f7bb9	-0.1401204
68	0xbefb5c7f	-0.49094006
69	0xbf40d5b6	-0.75326097
70	0xbf3f25ec	-0.7466724
71	0xbe3fa068	-0.18713534
72	0xbf1304b5	-0.5742906
73	0xbe7c44e8	-0.2463566
74	0x3f7de945	0.99184066
75	0xbe5c56ca	-0.21517482
76	0xbea7f79c	-0.32806098
77	0x3ec14e78	0.3775518
78	0x3d30de1e	0.043180577
79	0xbec5e5f2	-0.38651997
80	0x3dd398a9	0.10331852
81	0xbeb0d8c4	-0.3454038
82	0xbe60f03a	-0.21966639
83	0xbe0b8289	-0.13624014
84	0xbe71fafc	-0.23630899
85	0x3dbec098	0.09314078
86	0xbf14df8c	-0.58153605
87	0xbddc6a46	-0.107624575
88	0xbe63f8be	-0.22262856
89	0xbe894f14	-0.26818144
90	0xbd10d437	-0.035358634
91	0x3d9d950e	0.076944456
92	0xbf4ea5f7	-0.8072199
93	0x3de902a1	0.113774545
94	0xbf0e512e	-0.5559262
95	0x3cc7b2e7	0.0243773
96	0xbe290e0a	-0.16509262
97	0xbd438499	-0.047733877
98	0xbee5efa4	-0.44909394
99	0xbee8dc32	-0.45480496
100	0xbdd6aaa9	-0.104817696
101	0xbe51a4e0	-0.20473051
102	0xbeb42cef	-0.35190532
103	0x3e8178cb	0.2528747
104	0xbf3e4411	-0.7432261
105	0xbed820b8	-0.42212462
106	0xbea39f72	-0.31957585
107	0x3e438afc	0.19095987
108	0xbf08e65d	-0.53476506
109	0xbeca7785	-0.3954431
110	0xbea13dcb	-0.31492457
111	0xbf1b38b1	-0.6063338
112	0xbf3c5bfc	-0.73577857
113	0x3dbb5450	0.09146941
114	0x3ebe87ac	0.37212884
115	0x3df3ca25	0.119037904
116	0xbe576e65	-0.21038206
117	0xbe5885a3	-0.21144728
118	0xbadcc945	-0.0016844651
119	0xbef400ad	-0.47656766
120	0x3d838de7	0.0642355
121	0xbf252d62	-0.64522374
122	0x3d7d88fa	0.06189821
123	0xbf159c97	-0.5844206
124	0xbf80ef7c	-1.0073085
125	0xbe869970	-0.2628894
126	0x3e842b3b	0.25814232
127	0xbeee5f79	-0.46557215
128	0xbe3786a4	-0.17922455
129	0xbe9502ad	-0.29103604
130	0xbe0185e8	-0.12648737
131	0xbe70bed0	-0.23510289
132	0xbe3c4da7	-0.18388997
133	0xbeb2cbbc	-0.34921062
134	0x3ef9061b	0.4863747
135	0xbe6cb1c9	-0.23114695
136	0xbecdb136	-0.40174264
137	0xbf329f42	-0.6977426
138	0xbe9be0a1	-0.30444816
139	0xbe4f4307	-0.20240413
140	0x3d782a60	0.060587287
141	0xbef3ea55	-0.4763972
142	0xbdfd3375	-0.1236333
143	0xbe0d08a6	-0.1377283
144	0xbed63e71	-0.41844514
145	0xbe0bcc59	-0.13652171
146	0xbf042c4d	-0.516301
147	0xbefd2701	-0.4944382
148	0xbe8b0599	-0.27152708
149	0x3d9305f5	0.071788706
150	0x3ec4327e	0.38319772
151	0x3e570ef4	0.21001798
152	0xbeb5f9a4	-0.35542023
153	0xbef5fbc6	-0.4804365
154	0xbefd8f41	-0.49523357
155	0xbf1db7c4	-0.6160853
156	0xbe8b8b4e	-0.2725472
157	0xbd652a83	-0.055948745
158	0x3d48bd66	0.04900875
159	0xbe12b251	-0.14325835
160	0x3df12f82	0.117766395
161	0x3dc25fce	0.094909295
162	0xbd0daea1	-0.034590367
163	0xbeb28d47	-0.3487341
164	0xbeebb132	-0.46033627
165	0x3f273ba6	0.6532539
166	0xbdc2804b	-0.09497126
167	0xbe8d48e3	-0.2759467
168	0xbf2d6167	-0.6772675
169	0x3e55a8b1	0.20865132
170	0xbebf7fa2	-0.37402064
171	0xbe849c1b	-0.2590035
172	0xbf647725	-0.892443
173	0xbea8335d	-0.32851687
174	0xbe65e769	-0.22451557
175	0xbe6ebcd9	-0.23314227
176	0xbe5b33cb	-0.21406476
177	0x3f214de7	0.63009495
178	0xbe3c4917	-0.18387257
179	0xbe95d541	-0.29264262
180	0xbdb28382	-0.087164894
181	0x3ec3d9c5	0.38252082
182	0xbe855e02	-0.26048285
183	0xbd8d4157	-0.06897228
184	0x3d76131c	0.060076818
185	0xbe7ca7ba	-0.24673358
186	0xbf103a27	-0.56338733
187	0xbf02b916	-0.5106367
188	0xbdb9a50f	-0.090646856
189	0xbf207e05	-0.6269229
190	0x3cd1f3a1	0.025628867
191	0x3da9f090	0.08297837
192	0x3dd0bf7e	0.10192774
193	0xbe2834d5	-0.16426404
194	0xbe1cd2b4	-0.15314752
195	0xbf3da8fe	-0.74085987
196	0xbf10782b	-0.5643336
197	0xbe5f725a	-0.21820965
198	0x3de9fbc3	0.11424973
199	0xbe36e2f4	-0.17860013
200	0xbf0668fd	-0.5250395
201	0xbcc1e43a	-0.023668397
202	0xbf5fc01e	-0.8740252
203	0xbe8c769b	-0.2743424
204	0xbe242415	-0.16029389
205	0x3d473997	0.048638906
206	0xbead1856	-0.3380763
207	0xbf5a6f9a	-0.8532654
208	0xbe26b2bd	-0.1627912
209	0xbdda0e6b	-0.10647281
210	0x3dbe8bae	0.093039855
211	0xbe480abc	-0.19535345
212	0xbe2bcefe	-0.1677818
213	0x3edb98e1	0.42890075
214	0xbe43d9e8	-0.19126093
215	0xbe5225fc	-0.20522302
216	0xbdc3cead	-0.09560905
217	0xbf2f1635	-0.6839326
218	0xbf268aa7	-0.65055317
219	0xbea6a53d	-0.32547942
220	0xbdf026a2	-0.117261186
221	0x3b718bc6	0.0036856993
222	0xbea11485	-0.31460968
223	0xbd14736d	-0.03624289
224	0xbe0163ea	-0.1263577
225	0xbf07f170	-0.5310278
226	0xbe6fe06f	-0.23425458
227	0xbe040d5a	-0.12895718
228	0xbe6e91da	-0.23297825
229	0xbe013bd7	-0.12620483
230	0xbd855482	-0.06510259
231	0x3d600602	0.05469323
232	0x3db81a31	0.089893706
233	0xbf10b6ba	-0.5652882
234	0x3f33f095	0.70288974
235	0xbf4e24d5	-0.8052495
236	0xbe85b9bf	-0.26118276
237	0xbec8686b	-0.39142165
238	0x3d861d13	0.06548514
239	0xbe9d3ee5	-0.30712047
240	0xbe9abed5	-0.30223718
241	0xbee326f8	-0.44365668
242	0xbe141ec7	-0.14464866
243	0xbe7e1521	-0.24812748
244	0xbf00faef	-0.50382894
245	0xbe930e18	-0.2872169
246	0xbe9d3fdc	-0.30712783
247	0xbeab8b69	-0.335048
248	0xbf31f40b	-0.69513005
249	0xbe92b3fe	-0.28652948
250	0xbe212ee8	-0.1574055
251	0xbe19139b	-0.14948885
252	0xbf34f545	-0.7068675
253	0xbf00458d	-0.50106126
254	0xbed5fb6b	-0.4179338
255	0xbe9b404e	-0.30322498

fc3.weight f4 [128, 256]
0	0x3da83fc4	0.08215287
1	0x3e208dca	0.15679088
2	0xbc71ff03	-0.014770272
3	0x3dd279ce	0.10277139
4	0x3d22697e	0.039651386
5	0x3e0f1ff8	0.13977039
6	0x3d8f2e7e	0.069912896
7	0x3d9c08b8	0.076188505
8	0x3d2b9b62	0.04189623
9	0x3e0cfe08	0.1376878
10	0x3d6de3ec	0.05807869
11	0x3d9d5264	0.076817304
12	0x3e4fc07c	0.2028827
13	0x3d651ba1	0.055934552
14	0xbe127db9	-0.14305772
15	0x3e260d4b	0.16216008
16	0x3dabedb1	0.083949454
17	0x3d2d1320	0.042254567
18	0x3d90e0a2	0.07074095
19	0x3e58b797	0.21163784
20	0x3dd8a82b	0.105789505
21	0xbce4dbc1	-0.027936818
22	0x3d5f3879	0.054497216
23	0xbc81e545	-0.015856395
24	0x3e1bee78	0.15227687
25	0x3c084924	0.008318219
26	0x3dcdd262	0.10049893
27	0xbd32a493	-0.04361398
28	0x3d4e4bba	0.050365187
29	0x3dd9cc51	0.106346734
30	0xbcfa10ca	-0.030525584
31	0x3de47da7	0.11156779
32	0x3d09681c	0.033546552
33	0xbe28e680	-0.16494179
34	0xbabad673	-0.0014254585
35	0x3d445ae3	0.04793824
36	0x3d7c9195	0.061662275
37	0x3d8b301a	0.06796284
38	0x3e07a071	0.13244797
39	0x3e2c8567	0.16847764
40	0x3dfc4a11	0.123188145
41	0x3da6738a	0.08127506
42	0xbc62f4ee	-0.013852341
43	0x3d849a85	0.06474785
44	0xbca7d798	-0.020488545
45	0x3d2b0717	0.04175481
46	0x3e1b5a1d	0.15171094
47	0x3d9abc9b	0.07555505
48	0x3da869a8	0.08223277
49	0xbd2cc959	-0.042184208
50	0xbb82b9b1	-0.0039894213
51	0xbc0179c1	-0.007902564
52	0x3dde5146	0.108553454
53	0x3cd769c6	0.026295554
54	0xbd0997b0	-0.033591926
55	0x3d3246a6	0.043524407
56	0xbdb7921e	-0.089634165
57	0x3ca2cdba	0.019873489
58	0x3d9fa43a	0.077949956
59	0x3c9fde31	0.019515129
60	0x3e04c694	0.12966377
61	0x3e034589	0.12819494
62	0xbdb628ee	-0.088945255
63	0x3d91b76d	0.07115064
64	0x3cd81077	0.026375039
65	0x3d8f9a54	0.07011858
66	0x3d5fcd70	0.05463928
67	0x3c93c7f4	0.018039681
68	0x3dfe29d0	0.12410319
69	0x3cff4874	0.031162478
70	0x3dbcac1a	0.09212513
71	0x3deecd59	0.11660261
72	0x3e0715a7	0.13191853
73	0x3d864f6d	0.06558118
74	0x3c827489	0.015924709
75	0x3caeedf3	0.021353697
76	0x3d32d9bf	0.04366469
77	0xbc9c2394	-0.019059934
78	0x3d138b48	0.0360215
79	0x3c82de69	0.015975194
80	0xbbd739b8	-0.00656816
81	0x3cc0e55d	0.023546869
82	0x3d68b6eb	0.05681507
83	0xbcd180ca	-0.025574107
84	0x3cfda22a	0.030961115
85	0xbe49c360	-0.19703436
86	0x3df96a08	0.12178427
87	0xbd0722ee	-0.032992296
88	0x3e27f722	0.16402867
89	0x3db553a4	0.08853844
90	0x3cbe8f4e	0.023261692
91	0x3cb30a2c	0.021855436
92	0x3d8669e2	0.06563164
93	0x3c6725bb	0.014108117
94	0x3e42a372	0.19007662
95	0xbd808271	-0.0627488
96	0x3c0bf8f3	0.008543241
97	0x3d7fcde5	0.062452216
98	0x3af39f45	0.0018586895
99	0x3c030c19	0.00799849
100	0x3e245cf5	0.16051085
101	0x3d8f55ed	0.06998811
102	0xbd23f017	-0.04002389
103	0x3cb52f94	0.022117414
104	0x3da12adb	0.07869502
105	0x3d81afd3	0.06332364
106	0x3e0c8ba2	0.1372514
107	0x3d84bfab	0.0648187
108	0x3c686c66	0.014186
109	0x3d8e21a6	0.06940012
110	0x3dff15bd	0.12455318
111	0x3e0a8f92	0.1353133
112	0x3d7ec7d2	0.062202282
113	0x3dec5e8a	0.115414694
114	0xbdff9398	-0.12479323
115	0xbc18b92e	-0.009321494
116	0x3d848d7e	0.064723
117	0x3e10bef5	0.14135344
118	0xbe040c8f	-0.12895416
119	0x3d3f046c	0.046635076
120	0x3d3ef64d	0.04662161
121	0xbb71a4eb	-0.003687198
122	0xbdad6681	-0.08466817
123	0x3d475046	0.04866054
124	0x3cdffa11	0.02734092
125	0x3e7415c9	0.23836435
126	0xbd5c1e57	-0.05373987
127	0xbccf2502	-0.025286201
128	0x3d455d2c	0.04818456
129	0x3e4c57b0	0.19955325
130	0xbd4accb7	-0.049511638
131	0x3d235434	0.039875224
132	0xbbbb3179	-0.0057126847
133	0x3d92fb58	0.07176846
134	0xbcd0bc4f	-0.025480418
135	0x3d9f2ceb	0.07772239
136	0x3e2490c0	0.16070843
137	0x3c00e813	0.007867831
138	0x3db1c127	0.08679419
139	0x3e2193b6	0.15779004
140	0x3d8437f6	0.06455986
141	0x3d716f17	0.058943834
142	0x3e0d58d3	0.13803415
143	0x3dab81dc	0.08374378
144	0x3c14469f	0.0090500405
145	0xbbe4c527	-0.00698151
146	0x3bdfb628	0.0068271346
147	0xbca27e61	-0.019835653
148	0x3e64a08d	0.2232687
149	0xbe0fbebf	-0.14037608
150	0x3d682b71	0.056682054
151	0xbd01a50c	-0.03165154
152	0x3d0cce2b	0.034376305
153	0x3d435d37	0.04769632
154	0x3e3b3f7f	0.1828594
155	0x3dd20f9a	0.10256882
156	0x3c5c39c8	0.0134415105
157	0x3dc17437	0.09445994
158	0x3e1858cf	0.14877628
159	0x3cf17435	0.029474357
160	0x3d8a79d3	0.067615174
161	0xbd4da724	-0.050208226
162	0xbd9e6247	-0.07733589
163	0x3cdd11f3	0.026986098
164	0x3e176e73	0.14788227
165	0xbc93b5bc	-0.018030994
166	0x3e0d9299	0.13825454
167	0x3d8003f1	0.06250752
168	0x3ca26315	0.019822637
169	0x3dbb573d	0.09147499
170	0x3dc44280	0.09582996
171	0x3dcf20d2	0.10113682
172	0x3e038405	0.1284333
173	0x3dbb4140	0.09143305
174	0x3c2646f0	0.010148749
175	0x3dc49e04	0.096004516
176	0x3d25feb3	0.040526103
177	0x3cbd4fd5	0.023109356
178	0x3d9a5532	0.07535781
179	0x3d9589a9	0.07301647
180	0x3d8545a0	0.065074205
181	0xbe01def2	-0.12682703
182	0x3e7bf6ef	0.24605916
183	0x3e1ba4d1	0.15199591
184	0x3c3d4167	0.011551238
185	0xbd9ccc56	-0.076561615
186	0x3df13fe5	0.11779765
187	0x3da358c5	0.07975916
188	0x3e7f5e5e	0.24938342
189	0x3dc84b56	0.09779994
190	0xbd0006ff	-0.031256672
191	0x3db9d0fa	0.09073062
192	0x3d649e6b	0.05581514
193	0x3d89d8cb	0.06730803
194	0xbc47c320	-0.0121925175
195	0x3e1e0c2b	0.15434329
196	0x3db383da	0.08765383
197	0x3c55e7ab	0.013055722
198	0xbe083085	-0.13299759
199	0x3e017a71	0.12644364
200	0x3cfee4b2	0.03111491
201	0x3dbf0815	0.093277134
202	0x3d1c09c2	0.038095243
203	0x3d094e88	0.03352216
204	0x3e12a897	0.14322124
205	0xbd8a4657	-0.067516975
206	0x3e6d2b98	0.23161161
207	0x3d60a68a	0.054846324
208	0x3dea7d6a	0.11449702
209	0x3e3d6b6f	0.18498014
210	0x3da142c4	0.07874063
211	0xbd2b2f74	-0.0417933
212	0x3d3f93cd	0.046771813
213	0xbdd8b577	-0.10581487
214	0x3d86efff	0.06588744
215	0x3c4a1f2a	0.012336532
216	0x3e3ddae8	0.18540537
217	0x3dbc2808	0.09187323
218	0xbd65ab2c	-0.056071445
219	0x3de69aaa	0.112599686
220	0x3ceee633	0.029162502
221	0xbcbde44c	-0.02318015
222	0xbc684f74	-0.014179099
223	0xbd901516	-0.07035272
224	0xbd0bb019	-0.034103487
225	0x3df5bb2a	0.11998589
226	0xbd66c44a	-0.05633954
227	0x3d846c37	0.06465953
228	0xbdb43d47	-0.0880075
229	0x3daf0671	0.085461505
230	0x3d06a9ca	0.032876767
231	0xbc05592a	-0.008138934
232	0xba815903	-0.0009868447
233	0x3e0097f3	0.12557964
234	0x3d441b73	0.04787774
235	0x3df7110c	0.12063798
236	0x3d4c4d69	0.04987851
237	0x3ddb2686	0.10700707
238	0x3cee9625	0.029124329
239	0x3d8d8ed5	0.06912009
240	0x3d842432	0.06452216
241	0x3e28eab8	0.16495788
242	0x3e17378e	0.14767286
243	0x3db1a3a3	0.08673789
244	0xb9f889ec	-0.00047405006
245	0x3a1885cf	0.0005818279
246	0x3d8b0e80	0.06789875
247	0x3d3f3cee	0.046688966
248	0x3da90fa9	0.0825494
249	0x3dfa1e96	0.12212865
250	0x3e44230a	0.19153991
251	0x3cc2af78	0.02376531
252	0x3e145080	0.14483833
253	0x3dd81204	0.10550311
254	0x3dfc893f	0.12330865
255	0x3dfb5a92	0.12273134

fc3.bias f4 [128]
0	0xbeb7eb9d	-0.35921946
1	0xbe902dd7	-0.28159973
2	0xbee3971e	-0.4445123
3	0xbcbd758c	-0.02312734
4	0xbe8ec864	-0.2788726
5	0xbe5f7748	-0.21822846
6	0xbe86c2ce	-0.263205
7	0xbeac7ea1	-0.3369036
8	0x3ece50d7	0.4029605
9	0xbe6da6e6	-0.23208198
10	0xbe5b5041	-0.21417333
11	0xbe49273d	-0.19643874
12	0xbe0a4d2c	-0.13506001
13	0xbdeb40bf	-0.11486959
14	0xbe955492	-0.29166085
15	0xbe4936d1	-0.19649817
16	0xbe8e0ea8	-0.27745557
17	0xbdc5c442	-0.09656574
18	0xbe78bb17	-0.24290119
19	0xbe7fd75a	-0.24984494
20	0xbe6806ab	-0.22658794
21	0xbe68fee8	-0.22753489
22	0xbe04d4d8	-0.12971818
23	0xbe4c6656	-0.19960913
24	0xbf07dee4	-0.5307448
25	0xbedc67c9	-0.43047932
26	0xbe9707f2	-0.2949825
27	0xbe2a0f3c	-0.16607374
28	0xbe7e8a7f	-0.2485752
29	0xbe3e201b	-0.18566935
30	0xbe58fcaf	-0.21190141
31	0xbe7d85ba	-0.24758044
32	0xbe86d8bb	-0.26337227
33	0xbe04cd90	-0.12969041
34	0xbe3a2c2a	-0.1818091
35	0xbd861167	-0.06546288
36	0xbdf5b4bd	-0.11997364
37	0xbea5203f	-0.32251164
38	0xbe5aee0d	-0.21379872
39	0xbe7db457	-0.24775825
40	0xbe371402	-0.17878726
41	0xbed04942	-0.4068089
42	0xbe30524a	-0.17218891
43	0xbe94d95e	-0.29072088
44	0xbe93d7e6	-0.28875655
45	0xbe756902	-0.23965839
46	0xbea198d7	-0.3156192
47	0xbdf65994	-0.120288044
48	0xbe4b75b8	-0.19869125
49	0xbec18a0b	-0.3780063
50	0xbe4dd3f2	-0.20100382
51	0xbea220d4	-0.3166567
52	0xbe0d5bde	-0.13804576
53	0x3eab6d1b	0.33481678
54	0xbf19164b	-0.5979964
55	0xbeec1986	-0.46113223
56	0xbe633339	-0.22187509
57	0xbe915955	-0.28388467
58	0xbe9650da	-0.2935856
59	0xbe84792f	-0.25873706
60	0xbe6bf3af	-0.23042177
61	0xbe5991b9	-0.21246995
62	0xbea883c3	-0.32913026
63	0xbe91024b	-0.28322062
64	0xbe1cea36	-0.1532372
65	0xbdf4ce4f	-0.11953413
66	0xbdf8657b	-0.12128731
67	0xbe636673	-0.2220705
68	0xbe9cb176	-0.30604142
69	0xbde2d572	-0.11075868
70	0xbea45635	-0.3209702
71	0xbe874f6c	-0.26427782
72	0xbe6e5a37	-0.23276602
73	0x3dd5e5f9	0.104442544
74	0xbe5eb467	-0.21748506
75	0xbe9280f0	-0.28613997
76	0xbe9ed26a	-0.31019908
77	0xbe281e56	-0.16417822
78	0xbe47f824	-0.19528252
79	0xbe6d854b	-0.23195378
80	0xbe023d65	-0.12718733
81	0xbf0b9558	-0.54524755
82	0xbe6b655d	-0.22987886
83	0xbf07f914	-0.5311444
84	0xbefb34e1	-0.4906378
85	0xbf0f1eb4	-0.55906224
86	0xbe555d68	-0.20836413
87	0x3d9b6ced	0.07589135
88	0xbef68e00	-0.48155212
89	0xbee374f1	-0.44425157
90	0xbe0c6b9d	-0.13712926
91	0xbe926b9f	-0.28597733
92	0xbe1e22c7	-0.15442954
93	0xbe465d2e	-0.19371483
94	0xbeef70e2	-0.4676581
95	0xbe4ccdc8	-0.20000374
96	0xbe3d6298	-0.18494642
97	0xbe451136	-0.19244847
98	0xbec08707	-0.37603018
99	0xbe8143a6	-0.25246924
100	0x3c0eff3e	0.008727847
101	0xbe4a1d90	-0.1973784
102	0xbe58208b	-0.21106164
103	0xbe5c3f51	-0.21508528
104	0xbe57cedf	-0.21075009
105	0xbd8c5c62	-0.06853558
106	0xbe18c3c0	-0.14918423
107	0xbe4e91ea	-0.2017285
108	0x3ed2a8e5	0.4114448
109	0xbe793292	-0.24335697
110	0xbe1e2592	-0.1544402
111	0xbe880081	-0.26562884
112	0xbe812079	-0.25220087
113	0xbe64b9f7	-0.22336565
114	0xbe1fbce8	-0.15599406
115	0xbe23cefe	-0.1599693
116	0xbe9e9128	-0.3097012
117	0xbec591af	-0.3858771
118	0xbe43149c	-0.1905083
119	0xbe3a7a48	-0.18210709
120	0xbd587b13	-0.052851748
121	0xbe70c191	-0.2351134
122	0xbe3abaa8	-0.18235266
123	0x3e97e16e	0.29664177
124	0x3cc9aaa3	0.024617499
125	0xbed2dc75	-0.4118382
126	0xbe422caf	-0.18962358
127	0xbe86ddaf	-0.26341006

fc4.weight f4 [1, 128]
0	0x3c8c8cb7	0.017156942
1	0xb932273c	-0.00016990019
2	0xbd015738	-0.03157732
3	0x3a93380a	0.0011231911
4	0x3a5ca765	0.0008417278
5	0xbb14d512	-0.0022710008
6	0x3caa90ed	0.02082106
7	0x3d310fda	0.043228008
8	0xbcdd8f60	-0.027045906
9	0x3c6a3ca1	0.014296682
10	0x3bac78aa	0.0052634077
11	0x3b6fd058	0.0036592688
12	0xbcc3b741	-0.023891093
13	0xbc891266	-0.016732406
14	0x3bc7af79	0.006093916
15	0x3c03bf58	0.008041225
16	0x3d4d0612	0.050054617
17	0x3c4b2de5	0.012401079
18	0xbc0c0535	-0.008546163
19	0x3a2ae6f4	0.00065194
20	0x3d0a8d35	0.03382607
21	0x3b2ae764	0.002607786
22	0x3cbc5057	0.022987528
23	0x3ba87c74	0.005141789
24	0xbd4825c1	-0.04886413
25	0xbd32bb80	-0.043635845
26	0x3c02ec14	0.007990856
27	0x3bde24fe	0.006779312
28	0x3c889a8c	0.016675256
29	0x3a29c70a	0.00064764975
30	0x3ba351c8	0.0049841143
31	0x3b19d034	0.0023470046
32	0x3b33da77	0.0027443448
33	0x3cab0e16	0.02088074
34	0x3c05123e	0.008122025
35	0x3d0c98e6	0.034325503
36	0x3cde9959	0.027172731
37	0xbb955c8d	-0.004558152
38	0xb9283818	-0.00016042625
39	0xbb66c255	-0.0035211046
40	0x3b84e54b	0.004055654
41	0xbca596a4	-0.020213433
42	0x3b1a6e7a	0.0023564384
43	0x3b3bf468	0.0028679613
44	0xba5a2f59	-0.00083230954
45	0xba0d929e	-0.0005400571
46	0x38d8e1b6	0.000103417246
47	0x39a4e592	0.0003145156
48	0x3d1476d8	0.03624615
49	0x3d2b3482	0.041798122
50	0xb987ae1c	-0.00025878928
51	0x3b8db13f	0.004324108
52	0x3c8ee594	0.017443456
53	0xbcfd7155	-0.03093783
54	0xbd86e537	-0.06586688
55	0xbccb1b3c	-0.02479326
56	0x3c805c79	0.015669094
57	0x3a06e11e	0.00051452394
58	0x3c1b337f	0.009472727
59	0xbb8e9d3d	-0.0043522404
60	0x3c9e689f	0.019336997
61	0x3b87ef84	0.0041484255
62	0x3b766c20	0.0037601069
63	0x3ba24f1f	0.0049532796
64	0x3b143b5d	0.002261839
65	0x3c21a99e	0.0098671
66	0x3ada9339	0.0016675956
67	0xbba5a9d1	-0.005055644
68	0x3b815e62	0.003948019
69	0xba735d8c	-0.0009283654
70	0x3a82d76e	0.0009982416
71	0x3a66e67d	0.0008808149
72	0x3a486c71	0.00076455536
73	0xbc2b8a5f	-0.010470002
74	0x3a93bfc6	0.0011272363
75	0x3c93c350	0.018037468
76	0x3c300a81	0.010744692
77	0x3ad8d715	0.0016543592
78	0xbaf2f307	-0.0018535563
79	0x3ccafbb5	0.024778226
80	0x3c6427c1	0.013925494
81	0xbd5c92eb	-0.05385105
82	0x3a6fde55	0.00091502565
83	0xbd766c36	-0.06016179
84	0xbd216a39	-0.039407942
85	0x3cdc27f4	0.02687452
86	0x39d14ef8	0.00039922423
87	0x3cad96e0	0.021190107
88	0xbd332f97	-0.043746557
89	0x3cf1c2bb	0.0295118
90	0x3a31c852	0.0006781864
91	0xbaa2af10	-0.0012411792
92	0xba1c0e06	-0.00059530174
93	0x3cb11e2e	0.021620836
94	0xbd00ad98	-0.031415552
95	0x3b8d5e55	0.004314224
96	0x3b9f750b	0.0048662475
97	0xbb29f5d2	-0.0025933874
98	0x3bc6ce32	0.006067061
99	0x3b7be92d	0.0038438544
100	0xbcb1ce5c	-0.021704845
101	0x3c55bd5c	0.013045635
102	0xbc9ca1db	-0.019120147
103	0xba5bf2d3	-0.00083903706
104	0x3a0652fa	0.0005124059
105	0x3b7626c2	0.0037559723
106	0xba81e5a0	-0.0009910353
107	0x3cea6743	0.028613692
108	0x3d030900	0.031991005
109	0x3cac46b2	0.021029804
110	0x3c8769fd	0.016530031
111	0xba3cd379	-0.0007203143
112	0x3b4659ce	0.003026593
113	0x3cc4f5f1	0.024043055
114	0x3b8f9a82	0.0043824324
115	0x3bb36b28	0.0054754205
116	0x3ca79293	0.020455634
117	0xbce3855c	-0.027773552
118	0x3a9eb230	0.0012107547
119	0x3bf014e0	0.0073267072
120	0xbb6de152	-0.0036297631
121	0x3bdac3f7	0.006676193
122	0x3b9074a7	0.0044084373
123	0x3c35957d	0.011083004
124	0x3d0125e3	0.031530272
125	0xbcd3f08f	-0.025871543
126	0x3af873ae	0.0018955374
127	0x3ba416f2	0.005007618
