checkpoint_actor0.pth (torch_old, 28437 bytes, 4 tensors)

fc1.weight f4 [256, 24]
-0.13888296 -0.11053238 -0.015516309 -0.012548156 0.69542897 0.14730603 0.01763426 -0.03003222
0.040765483 -0.12504667 0.056365862 0.04852535 0.44361192 -0.061689 -0.059092667 -0.0035548909
-0.049159966 -0.11903651 0.0057390025 -0.006981767 0.39799926 -0.090776 -0.044707295 -0.02285416
-0.07693488 -0.10084831 -0.0011702081 0.0394075 0.09921927 -0.015126626 -0.027191207 0.00092306937
-0.043328967 -0.008946151 0.04509314 0.22911939 0.16955265 -0.06196464 0.038110837 0.26041415
-0.014998988 0.027450634 0.09318102 0.07427861 0.21276906 -0.09932183 0.0753737 0.110957645
-0.013535458 -0.093625404 -0.029245026 -0.061617296 0.1425552 -0.16684817 0.035000958 -0.12828746
0.07278871 -0.16482055 0.07032275 0.05269135 -0.092329025 0.045951758 -0.002938669 -0.005234633
-0.053422086 -0.15968363 0.0021315934 0.14286177 -0.24928358 0.17416684 -0.017529963 0.14047469
-0.122801535 0.07057744 -0.00838613 0.18474823 0.005268076 -0.02060634 -0.00808925 0.09937334
-0.052976694 0.12722501 -0.085698366 0.033047616 -0.0027121478 -0.065187745 -0.011767165 0.0377234
-0.082232915 0.091206096 -0.04997545 -0.058701675 -0.007006094 -0.22835511 -0.045158315 -0.040611617
-0.01256886 0.09713264 0.059339937 0.074256994 -0.03224941 0.18811056 0.027590709 0.081102066
0.032699127 0.18624404 -0.0016014185 0.06564744 0.03110042 0.13992807 0.013312506 -0.02507041
-0.043086786 0.21698727 -0.00090706 -0.012388492 0.18576951 0.23602703 -0.08153758 -0.03333761
-0.0068363794 0.22662294 -0.044814043 0.040117715 -0.009442084 -0.006223258 0.04344248 0.023802778
-0.07969894 0.18781053 -0.05161618 -0.06542313 0.016245712 -0.13317701 -0.08580422 -0.038830522
-0.09351757 0.14107198 -0.027638372 -0.07090384 0.023585914 -0.19457968 0.07747649 -0.15764031
-0.07755631 0.2258406 0.004381494 0.006779111 0.11195932 0.08682343 -0.087412074 0.043771632
-0.10659029 0.09596783 -0.032174975 0.00603489 0.05745316 0.1196442 0.035437964 0.05771862
-0.019030552 0.17848489 0.05725692 -0.10720652 -0.039408002 0.09875405 0.0068806466 -0.18819311
0.037473343 0.08426034 -0.062456373 -0.06822407 0.14361477 0.023860073 -0.11331105 -0.1228048
-0.038839966 -0.14721026 0.013436896 -0.0896286 0.02378776 0.24817616 0.056172308 -0.08608698
-0.07147083 -0.07602422 0.042101953 -0.023978896 -0.20496893 0.22561662 0.1036571 -0.0444989
0.24812706 0.121377684 -0.00092431053 0.066938885 -0.032566268 -0.07010392 -0.013285209 0.048929088
0.028590854 -0.13463439 0.03549761 0.050841134 0.27299157 0.21165863 -0.02328641 0.037756864
0.06365982 -0.047796033 0.0016633905 0.022961335 0.31540272 0.15135173 -0.0047023636 0.014751505
0.02844218 0.26036254 0.0027090528 -0.042731415 0.028071634 0.032788638 0.048920743 -0.038676005
-0.0105816275 0.22413777 0.032492526 -0.02313881 0.007934747 -0.01585909 0.09220618 -0.05909379
-0.16944757 0.042852193 -0.024494093 -0.24820876 -0.055875786 0.030118754 0.017618742 -0.2634232
-0.121182255 -0.15005736 -0.023660626 0.027663182 -0.14163591 -0.12545475 0.05581225 0.054742407
-0.084329434 -0.03909018 0.041699346 -0.15929888 0.042825487 -0.27663857 0.038866717 -0.06796477
00000000: 5637 0ebe cd5e e2bd 1e38 7ebc c896 4dbc
00000010: a207 323f 64d7 163e b975 903c 2106 f6bc
00000020: b5f9 263d 3c0c 00be e4df 663d 84c2 463d
00000030: 1a21 e33e 9bad 7cbd 270b 72bd 2cf9 68bb
00000040: f65b 49bd 6ac9 f3bd 3e0e bc3b 4ec7 e4bb
00000050: 8fc6 cb3e c4e8 b9bd ff1e 37bd a638 bbbc
00000060: 0990 9dbd 8f89 cebd ab61 99ba c269 213d
00000070: 7933 cb3d abd5 77bc 18c0 debc 23fa 713a
00000080: b779 31bd e092 12bc 96b3 383d 469e 6a3e
00000090: 369f 2d3e a2ce 7dbd 1c1a 1c3d 0155 853e
000000a0: 51be 75bc 27e0 e03c b1d5 be3d 621f 983d
000000b0: 22e0 593e 3e69 cbbd 875d 9a3d c33d e33d
000000c0: d3c3 5dbc adbe bfbd 4493 efbc 6b62 7cbd
000000d0: fef9 113e 3fda 2abe 2a5d 0f3d ca5d 03be
000000e0: 3f12 953d b8c6 28be 6005 903d e3d2 573d
000000f0: 0017 bdbd e937 3c3d af96 40bb 4987 abbb
00000100: 1ed1 5abd 1b84 23be 34b2 0b3b 5b4a 123e
00000110: 3244 7fbe cb58 323e ff9a 8fbc 99d8 0f3e
00000120: 5f7f fbbd e88a 903d fb65 09bc a42e 3d3e
00000130: d39f ac3b a1ce a8bc c688 04bc 4084 cb3d
00000140: 17fe 58bd 4647 023e a082 afbd f05c 073d
00000150: 4abe 31bb 2781 85bd 11cb 40bc da83 1a3d
00000160: bb69 a8bd 43ca ba3d 0fb3 4cbd 2b71 70bd
00000170: 6093 e5bb ecd5 69be edf7 38bd 5e58 26bd
00000180: 9fed 4dbc 7aed c63d 6f0e 733d 0d14 983d
00000190: f517 04bd 0ea0 403e e905 e23c d718 a63d
000001a0: 85ef 053d c2b6 3e3e b0e6 d1ba 2a72 863d
000001b0: 4fc6 fe3c 4e49 0f3e b21c 5a3c 7660 cdbc
000001c0: c57b 30bd e931 5e3e c4c7 6dba 1af9 4abc
000001d0: 5d3a 3e3e 12b1 713e 2dfd a6bd 058d 08bd
000001e0: b503 e0bb d80f 683e ee8e 37bd 7952 243d
000001f0: f8b2 1abc 79ec cbbb bef0 313d 0bfe c23c
00000200: 3339 a3bd 6751 403e 7d6b 53bd 90fc 85bd
00000210: ba15 853c 8e5f 08be 1fba afbd c10c 1fbd
00000220: 2486 bfbd 2c75 103e de69 e2bc 0836 91bd
00000230: 3f37 c13c e53f 47be feab 9e3d 766c 21be
00000240: d8d5 9ebd c242 673e a392 8f3b 4e23 de3b
00000250: ee4a e53d 7cd0 b13d 1a05 b3bd e249 333d
00000260: 034c dabd c88a c43d e8c9 03bd 54c0 c53b
00000270: 0154 6b3d 0508 f53d 6627 113d 5c6a 6c3d
00000280: f6e5 9bbc bec4 363e 3b86 6a3d 188f dbbd
00000290: 496a 21bd 903f ca3d 0c77 e13b b2b5 40be
000002a0: a67d 193d af90 ac3d 41d2 7fbd 10b9 8bbd
000002b0: c00f 133e 3376 c33c a00f e8bd 1581 fbbd
000002c0: a816 1fbd 49be 16be 6d26 5c3c 338f b7bd
000002d0: 8cde c23c e421 7e3e ef14 663d 5f4e b0bd
000002e0: 4c5f 92bd 96b2 9bbd 1973 2c3d 646f c4bc
000002f0: 60e3 51be 0b08 673e 2c4a d43d 7b44 36bd
00000300: 0515 7e3e dd94 f83d 6e4d 72ba 4117 893d
00000310: 3564 05bd a592 8fbd 35aa 59bc de69 483d
00000320: 5e37 ea3c 99dd 09be f165 113d cb3e 503d
00000330: 8dc5 8b3e 0abd 583e 24c3 bebc f1a6 1a3d
00000340: 1460 823d c6c5 43bd 2006 da3a 6919 bc3c
00000350: 777c a13e f3fb 1a3e 4916 9abb 4cb0 713c
00000360: 93ff e83c 3d4e 853e 5d8a 313b 2307 2fbd
00000370: 7cf6 e53c 614d 063d 1e61 483d bb6a 1ebd
00000380: 905e 2dbc 5f84 653e e216 053d 9a8d bdbc
00000390: be00 023c ecea 81bc 98d6 bc3d 540c 72bd
000003a0: aa83 2dbe c885 2f3d d6a7 c8bc 702a 7ebe
000003b0: 02de 64bd 9bbb f63c 2e55 903c 68df 86be
000003c0: 672e f8bd a3a8 19be eed3 c1bc e69d e23c
000003d0: 0109 11be 3677 00be 639b 643d 9339 603d
000003e0: e9b4 acbd 061d 20bd efcc 2a3d 3f1f 23be
000003f0: c769 2f3d 92a3 8dbe b532 1f3d 1d31 8bbd

fc1.bias f4 [256]
0.13808824 -0.073240764 0.16444372 -0.09001554 0.21721531 0.16431618 0.10809728 -0.112096526
-0.21140333 0.18691714 -0.07703394 0.19578603 -0.014062185 -0.107314475 0.03806325 0.11026478
0.20154004 0.023845933 -0.06291717 -0.02103634 0.039526958 -0.10163963 0.008517379 0.03879197
0.109573275 0.13447668 0.3287134 0.15845741 -0.1743284 0.06343059 -0.14324147 -0.21653841
-0.055660058 0.28826693 0.11759606 -0.11255438 -0.15019353 0.25702634 0.14689916 -0.06085368
-0.006387921 -0.03535586 -0.0789712 0.14391787 0.06891065 -0.012510366 -0.18543914 0.049736932
0.05416206 0.046295453 0.09080526 0.13337961 -0.039119348 -0.102580845 0.2044388 0.15798292
0.02955958 -0.15504256 -0.10604664 0.038922485 -0.17661685 0.028670225 -0.10437428 -0.02086943
0.053367384 -0.12841804 -0.31348372 0.20510809 -0.047719948 -0.032780897 -0.12743787 -0.016264495
-0.12636709 -0.10669866 -0.1310656 0.06102125 -0.034133766 -0.18174921 -0.1293495 0.12087847
-0.08677943 0.070457004 0.0039830767 0.1085753 -0.024472477 -0.09920479 -0.093343444 0.15508272
0.10255319 0.089248106 0.047471125 0.2253651 -0.12240891 0.18520646 0.24403597 0.005109101
-0.14042753 0.11588931 0.031182831 0.0010755722 0.014470162 0.035598718 -0.14526044 0.049432654
-0.13313435 0.21960999 0.032508343 0.18464942 0.018517282 -0.052347977 -0.22021212 0.050153922
0.11167857 -0.2127337 -0.23559214 0.2398251 0.04890867 0.10789074 -0.13881597 0.13071936
0.08560813 0.012446952 -0.038383413 0.19503711 -0.03756571 0.060469814 0.14712875 0.011397819
0.005650039 0.08927891 0.19411333 -0.12666556 0.2251297 -0.10889876 0.2298163 0.12236842
-0.14632118 -0.27208963 0.09566974 0.14613903 -0.07526332 0.14524019 -0.0686416 0.15714955
-0.0132896975 -0.06739829 0.062484544 -0.108123206 0.103366725 -0.02710613 0.19688489 -0.1625958
0.22290316 -0.35284194 0.12150656 -0.051099543 0.03613137 0.024818506 -0.150191 0.23023161
-0.13932289 0.1297311 -0.0007097554 -0.050206993 0.0005109308 -0.189571 0.02189022 0.13986859
0.0040162676 -0.028431043 0.16669735 0.13867436 0.013645194 -0.23710705 0.07750945 0.21545863
-0.0028756221 -0.07212562 0.07376681 -0.07251995 0.15210408 0.00040315097 0.16389321 -0.108452365
-0.035506774 0.17886165 0.18676887 0.063857585 0.18063109 0.066967115 0.13927774 -0.0006935485
0.024247542 -0.029313695 0.11658276 -0.09647862 -0.21030496 -0.14364953 -0.2879732 -0.2508514
0.11029324 -0.007997015 0.16121008 -0.04178139 -0.3021884 -0.034733888 -0.035434306 -0.005897388
0.2018098 -0.00868502 -0.13536331 0.19022338 0.014345492 -0.06278157 0.06574746 0.15448692
-0.079462446 0.030539492 0.13963531 0.13623674 0.07840505 0.06208413 0.05119349 0.052666333
0.02665508 0.048016623 0.07654618 -0.15969399 -0.11998822 0.285624 -0.16323046 0.18192914
0.0901347 0.2290113 0.10192957 -0.034546472 -0.034659162 -0.12869413 -0.047578365 -0.0025069793
0.08763059 0.00052962004 -0.027106656 -0.055197753 -0.04800247 0.14682318 0.09228238 0.085240245
0.11409442 0.028397465 -0.18830651 0.053305577 0.08760406 0.008014918 -0.07151823 0.037054367
00000000: 0167 0d3e 41ff 95bd ef63 283e 115a b8bd
00000010: b16d 5e3e 8042 283e 1b62 dd3d dd92 e5bd
00000020: 1d7a 58be 3567 3f3e f8c3 9dbd 227c 483e
00000030: 1465 66bc b1c7 dbbd 36e8 1b3d 80d2 e13d
00000040: 8360 4e3e 8c58 c33c b8da 80bd 6754 acbc
00000050: 05e7 213d 7028 d0bd 7a8c 0b3c 54e4 1e3d
00000060: f467 e03d 41b4 093e 1f4d a83e a942 223e
00000070: 2583 32be e6e7 813d e4ad 12be 3fbc 5dbe
00000080: cdfb 63bd b997 933e 34d6 f03d e982 e6bd
00000090: 55cc 19be f598 833e bc6c 163e b541 79bd
000000a0: c451 d1bb 4ed1 10bd a7bb a1bd 355f 133e
000000b0: 0721 8d3d 47f8 4cbc c2e3 3dbe f4b8 4b3d
000000c0: 09d9 5d3d 4da0 3d3d 1cf8 b93d aa94 083e
000000d0: 9c3b 20bd e815 d2bd 6858 513e 46c6 213e
000000e0: ef26 f23c 7ac3 1ebe fb2e d9bd 2f6d 1f3d
000000f0: 0cdb 34be d2dd ea3c 2fc2 d5bd 5ef6 aabc
00000100: c297 5a3d 0580 03be f080 a0be db07 523e
00000110: fe75 43bd 4345 06bd 137f 02be 1e3d 85bc
00000120: 6066 01be d484 dabd 1036 06be 6bf1 793d
00000130: d9cf 0bbd 771c 3abe 3274 04be 228f f73d
00000140: 6ab9 b1bd c34b 903d 7884 823b ba5c de3d
00000150: 817a c8bc e22b cbbd d92a bfbd 01ce 1e3e
00000160: 6807 d23d b6c7 b63d 1571 423d 1cc6 663e
00000170: 86b1 fabd c3a6 3d3e 91e4 793e 3f6a a73b
00000180: 3ccc 0fbe 6057 ed3d 2373 ff3c 37fa 8c3a
00000190: 4214 6d3c f6cf 113d 27bf 14be e579 4a3d
000001a0: 5f54 08be 71e1 603e 7827 053d bd14 3d3e
000001b0: 8eb1 973c d56a 56bd 497f 61be 336e 4d3d
000001c0: bcb7 e43d ddd6 59be 113f 71be b694 753e
000001d0: 7554 483d d2f5 dc3d c625 0ebe 4cdb 053e
000001e0: 5153 af3d 4dee 4b3c ed37 1dbd cfb7 473e
000001f0: 80de 19bd 32af 773d eba8 163e ebbd 3a3c
00000200: f623 b93b dcd7 b63d a5c5 463e 9eb4 01be
00000210: 6688 663e 5006 dfbd f754 6b3e 4b9c fa3d
00000220: 38d5 15be 554f 8bbe 7fee c33d 78a5 153e
00000230: a823 9abd d8b9 143e f893 8cbd d0eb 203e
00000240: 08bd 59bc 1d08 8abd cbef 7f3d b36f ddbd
00000250: efb1 d33d ad0d debc 319c 493e 837f 26be
00000260: ba40 643e b3a7 b4be 6ed8 f83d c14d 51bd
00000270: 7dfe 133d 2e50 cb3c abcb 19be d6c1 6b3e
00000280: a9aa 0ebe 3bd8 043e e10e 3aba d9a5 4dbd
00000290: fcef 053a e61e 42be 1e53 b33c b639 0f3e
000002a0: e59a 833b 38e8 e8bc b6b2 2a3e a700 0e3e
000002b0: 1790 5f3c 31cc 72be 46bd 9e3d 30a1 5c3e
000002c0: ef74 3cbb 99b6 93bd 0e13 973d 5785 94bd
000002d0: 2cc1 1b3e 025e d339 9fd3 273e 461c debd
000002e0: 8d6f 11bd 8227 373e 5740 3f3e c4c7 823d
000002f0: 5bf7 383e 0e26 893d d39e 0e3e 41cf 35ba
00000300: c8a2 c63c 4623 f0bc f1c2 ee3d 9596 c5bd
00000310: 2f5a 57be dd18 13be 3971 93be 986f 80be
00000320: 6ce1 e13d e905 03bc 4114 253e f622 2bbd
00000330: 70b8 9abe 1f45 0ebd 9023 11bd e03e c1bb
00000340: 3aa7 4e3e 9d4b 0ebc ae9c 0abe ebc9 423e
00000350: 5b09 6b3c a093 80bd 9ba6 863d d231 1e3e
00000360: 35bd a2bd f52d fa3c 8ffc 0e3e a581 0b3e
00000370: d492 a03d ee4b 7e3d 44b0 513d a7b8 573d
00000380: c15b da3c 14ad 443d 3ec4 9c3d d286 23be
00000390: 62bc f5bd 4f3d 923e e325 27be a24b 3a3e
000003a0: 8b98 b83d f081 6a3e 73c0 d03d 9a80 0dbd
000003b0: c4f6 0dbd 65c8 03be 88e1 42bd 224c 24bb
000003c0: ab77 b33d 33d6 0a3a c70e debc 0a17 62bd
000003d0: 3d9e 44bd d158 163e 8bfe bc3d 7092 ae3d
000003e0: 56aa e93d cda1 e83c 6cd3 40be f356 5a3d
000003f0: c269 b33d 0151 033c 2678 92bd 52c6 173d

fc2.weight f4 [2, 256]
-0.24131572 0.0025430303 -0.11802021 0.04258542 -0.1219673 0.15312696 0.081442945 0.010869987
0.21976343 0.051148217 0.04242273 -0.10037634 0.093236946 -0.070578665 0.049260247 -0.047726102
-0.028426673 -0.14925842 -0.08219553 -0.073329225 0.113697134 0.06633389 -0.14032952 -0.115235224
0.09280343 -0.045759603 -0.021146966 -0.15451698 0.08213689 0.03499033 -0.048602514 -0.0005791036
0.13713449 -0.0622352 -0.017224018 -0.038967676 0.04646837 -0.08408173 0.20810166 0.2846929
0.27984086 0.020217324 0.2944307 -0.102609344 -0.1128325 -0.025882205 0.08017584 0.070730634
-0.19271764 -0.024662385 -0.027750125 -0.044908773 0.085185654 0.22502612 -0.10314076 -0.11996485
0.088060945 -0.13670295 0.042338833 -0.03426055 -0.23251188 -0.054288093 0.3001096 -0.12766057
0.09474118 0.14458892 0.22115894 -0.07824363 0.1244663 -0.059958845 -0.13884088 -0.09988857
0.14514306 0.05566701 0.03378553 -0.036978208 0.24977177 0.15644962 -0.11252734 0.07670861
-0.06545398 0.004985153 -0.10524224 -0.18322772 0.017901324 -0.05323376 -0.11399966 0.13432288
-0.09935935 0.18629393 0.16220286 -0.08889097 -0.039982364 -0.050422758 -0.011417807 -0.012092513
0.11296866 -0.33682448 -0.00923213 -0.034199297 0.008503919 0.016931318 -0.19902638 -0.05135215
0.11602327 -0.04138067 -0.011084824 -0.049157597 -0.17822549 -0.0020668851 0.087725036 -0.019696105
-0.10180707 -0.013518016 0.09431744 -0.06983874 0.13554217 0.16287203 -0.16935067 -0.052308537
0.051972844 0.22439696 0.008271269 -0.044302136 0.05076601 -0.01230787 0.07616653 0.04301093
0.1537647 -0.20736642 -0.09830901 0.046674512 0.104664326 0.07135275 0.1609463 0.0076382384
-0.16580726 0.05540292 -0.0500021 -0.04160938 -0.060610984 0.06880397 -0.00072797824 0.15951999
-0.24256529 -0.08057528 0.15285118 0.026538199 0.08854413 -0.07389242 -0.058710884 -0.09571029
-0.19117899 0.12254822 0.009750084 -0.08698533 0.24633804 0.1771079 0.12525117 -0.23366296
0.11424684 0.10513664 -0.09458634 0.14710218 0.01427246 0.050792065 0.17603369 -0.46930966
0.083450995 -0.08046988 -0.15748692 -0.052751526 0.0058279308 -0.0002729799 -0.009671445 -0.035424136
-0.07934874 -0.075069934 -0.07838099 0.26266074 0.036678016 0.2076577 -0.08507876 -0.030626807
0.09518942 0.10714157 0.12985054 -0.09966349 -0.10443646 -0.048999228 -0.0021721239 0.14206581
-0.0068051987 0.07130247 -0.060929894 0.13333885 0.022457553 0.06049889 0.038250566 0.27371493
0.14170702 -0.12677275 -0.0783078 -0.0566006 0.27950117 -0.017786374 0.012589279 0.09202989
-0.024552777 0.04489546 0.17535041 -0.0725379 -0.07538967 -0.07249506 -0.09448871 0.028019814
0.094987206 -0.17049979 0.027774272 0.14644708 0.110886596 -0.054007046 0.006055436 -0.027977398
-0.23487236 -0.008974873 -0.11346602 0.1638125 -0.093119554 -0.0272564 -0.043610103 0.12795441
0.30372313 -0.15997554 -0.1441751 0.06500871 -0.037048887 -0.06326245 0.34099585 0.12224392
0.19459179 -0.07286728 -0.1106692 0.25891602 0.16904153 0.084630966 -0.25874946 0.07552755
-0.0791691 -0.21735711 0.03803776 -0.059430987 0.06106355 0.083652325 0.12892786 -0.14273429
00000000: 781b 77be f8a8 263b 94b4 f1bd 0d6e 2e3d
00000010: fec9 f9bd 50cd 1c3e 8fcb a63d 0818 323c
00000020: aa09 613e cb80 513d 75c3 2d3d 1c92 cdbd
00000030: 03f3 be3d 8c8b 90bd 1dc5 493d 727c 43bd
00000040: 0edf e8bc 33d7 18be 2156 a8bd a22d 96bd
00000050: 0bda e83d 10da 873d 8bb2 0fbe 7200 ecbd
00000060: ba0f be3d 6c6e 3bbd 673c adbc b339 1ebe
00000070: 6337 a83d 0552 0f3d 6e13 47bd fcce 17ba
00000080: fc6c 0c3e 56ea 7ebd 6219 8dbc 929c 1fbd
00000090: 9e55 3e3d 0b33 acbd 9a18 553e 45c3 913e
000000a0: 4d47 8f3e cd9e a53c 9fbf 963e d924 d2bd
000000b0: ba14 e7bd eb06 d4bc 3b33 a43d 39db 903d
000000c0: c657 45be c508 cabc 3b54 e3bc 43f2 37bd
000000d0: d175 ae3d 3f6d 663e 763b d3bd 22b0 f5bd
000000e0: 4c59 b43d dcfb 0bbe 7c6b 2d3d ca54 0cbd
000000f0: 9817 6ebe 315d 5ebd f7a7 993e 74b9 02be
00000100: aa07 c23d 1e0f 143e 7d77 623e 323e a0bd
00000110: 30e8 fe3d 6897 75bd 4e2c 0ebe 6192 ccbd
00000120: 62a0 143e 1703 643d b262 0a3d 7676 17bd
00000130: 2cc4 7f3e 5434 203e bc74 e6bd 6719 9d3d
00000140: bc0c 86bd 7f5a a33b 3e89 d7bd 0ca0 3bbe
00000150: cca5 923c a50b 5abd a778 e9bd f08b 093e
00000160: ea7c cbbd d6c3 3e3e 8218 263e 780c b6bd
00000170: 8cc4 23bd 1888 4ebd c111 3bbc ad1f 46bc
00000180: 1d5c e73d 4274 acbe 5c42 17bc 9014 0cbd
00000190: 0554 0b3c 8cb3 8a3c 92cd 4bbe a256 52bd
000001a0: 9c9d ed3d c77e 29bd 1f9d 35bc 7a59 49bd
000001b0: be80 36be 9474 07bb 2fa9 b33d ba59 a1bc
000001c0: 3a80 d0bd ab7a 5dbc 8129 c13d 9d07 8fbd
000001d0: 91cb 0a3e edc7 263e 436a 2dbe 7a41 56bd
000001e0: 7ae1 543d 51c8 653e 3784 073c 2876 35bd
000001f0: 05f0 4f3d f3a6 49bc 33fd 9b3d 3b2c 303d
00000200: 7e74 1d3e dd57 54be 3c56 c9bd c62d 3f3d
00000210: 405a d63d 6421 923d 1bcf 243e 304a fa3b
00000220: 61c9 29be 2cee 623d 01cf 4cbd 996e 2abd
00000230: 3943 78bd 19e9 8c3d cbd5 3eba 3559 233e
00000240: 0963 78be a704 a5bd 0585 1c3e a366 d93c
00000250: a056 b53d e954 97bd d37a 70bd c203 c4bd
00000260: 6dc4 43be 90fa fa3d d1be 1f3c 5d25 b2bd
00000270: 0a40 7c3e c65b 353e d841 003e 5845 6fbe
00000280: 3ffa e93d e151 d73d 7cb6 c1bd f4a1 163e
00000290: 09d7 693c 570b 503d 2d42 343e 5b49 f0be
000002a0: 5be8 aa3d 64cd a4bd 4044 21be fc11 58bd
000002b0: 3af8 be3b be1e 8fb9 fb74 1ebc e618 11bd
000002c0: 9881 a2bd 44be 99bd 3686 a0bd 787b 863e
000002d0: b03b 163d 38a4 543e c63d aebd 12e5 fabc
000002e0: acf2 c23d 0a6d db3d 8af7 043e 5f1c ccbd
000002f0: c8e2 d5bd 6ab3 48bd 315a 0ebb b379 113e
00000300: 25fe debb 0807 923d a091 79bd fb89 083e
00000310: e7f8 b73c afcd 773d a0ac 1c3d 5d24 8c3e
00000320: a51b 113e b7d0 01be d75f a0bd 08d6 67bd
00000330: c71a 8f3e bbb4 91bc 4343 4e3c 2b7a bc3d
00000340: e822 c9bc 4de4 373d 0f8f 333e c08e 94bd
00000350: e665 9abd 4a78 94bd 4c83 c1bd cf89 e53c
00000360: a788 c23d 7f97 2ebe df86 e33c 39f6 153e
00000370: 8318 e33d 7e36 5dbd ae6c c63b db30 e5bc
00000380: 6182 70be 590b 13bc df60 e8bd 77be 273e
00000390: 77b5 bebd d048 dfbc 82a0 32bd 7b06 033e
000003a0: 9981 9b3e a1d0 23be a3a2 13be 4923 853d
000003b0: 93c0 17bd be8f 81bd 0297 ae3e 055b fa3d
000003c0: 1243 473e 713b 95bd 89a6 e2bd a490 843e
000003d0: 3919 2d3e 0053 ad3d cf7a 84be 30ae 9a3d
000003e0: 6923 a2bd dd92 5ebe 7bcd 1b3d e86d 73bd
000003f0: c61d 7a3d e951 ab3d aa05 043e f028 12be

fc2.bias f4 [2]
-0.07385961 0.043605197
00000000: b543 97bd 5d9b 323d
